{"format": "graph-model", "generatedBy": "2.8.2", "convertedBy": "TensorFlow.js Converter v3.20.0", "signature": {"inputs": {"input_6": {"name": "input_6:0", "dtype": "DT_FLOAT", "tensorShape": {"dim": [{"size": "-1"}, {"size": "64"}, {"size": "64"}, {"size": "1"}]}}}, "outputs": {"conv2d_transpose_23": {"name": "Identity:0", "dtype": "DT_FLOAT", "tensorShape": {"dim": [{"size": "-1"}, {"size": "256"}, {"size": "256"}, {"size": "1"}]}}}}, "modelTopology": {"node": [{"name": "StatefulPartitionedCall/model/conv2d_transpose_23/strided_slice/stack", "op": "Const", "attr": {"dtype": {"type": "DT_INT32"}, "value": {"tensor": {"dtype": "DT_INT32", "tensorShape": {"dim": [{"size": "1"}]}}}}}, {"name": "StatefulPartitionedCall/model/conv2d_transpose_23/strided_slice/stack_1", "op": "Const", "attr": {"dtype": {"type": "DT_INT32"}, "value": {"tensor": {"dtype": "DT_INT32", "tensorShape": {"dim": [{"size": "1"}]}}}}}, {"name": "StatefulPartitionedCall/model/conv2d_transpose_23/strided_slice/stack_2", "op": "Const", "attr": {"value": {"tensor": {"dtype": "DT_INT32", "tensorShape": {"dim": [{"size": "1"}]}}}, "dtype": {"type": "DT_INT32"}}}, {"name": "StatefulPartitionedCall/model/conv2d_transpose_23/stack/1", "op": "Const", "attr": {"value": {"tensor": {"dtype": "DT_INT32", "tensorShape": {}}}, "dtype": {"type": "DT_INT32"}}}, {"name": "StatefulPartitionedCall/model/conv2d_transpose_23/stack/2", "op": "Const", "attr": {"value": {"tensor": {"dtype": "DT_INT32", "tensorShape": {}}}, "dtype": {"type": "DT_INT32"}}}, {"name": "StatefulPartitionedCall/model/conv2d_transpose_23/stack/3", "op": "Const", "attr": {"dtype": {"type": "DT_INT32"}, "value": {"tensor": {"dtype": "DT_INT32", "tensorShape": {}}}}}, {"name": "StatefulPartitionedCall/model/conv2d_transpose_23/conv2d_transpose/ReadVariableOp", "op": "Const", "attr": {"value": {"tensor": {"dtype": "DT_FLOAT", "tensorShape": {"dim": [{"size": "3"}, {"size": "3"}, {"size": "1"}, {"size": "4"}]}}}, "dtype": {"type": "DT_FLOAT"}}}, {"name": "StatefulPartitionedCall/model/conv2d_transpose_22/strided_slice/stack", "op": "Const", "attr": {"value": {"tensor": {"dtype": "DT_INT32", "tensorShape": {"dim": [{"size": "1"}]}}}, "dtype": {"type": "DT_INT32"}}}, {"name": "StatefulPartitionedCall/model/conv2d_transpose_22/strided_slice/stack_1", "op": "Const", "attr": {"dtype": {"type": "DT_INT32"}, "value": {"tensor": {"dtype": "DT_INT32", "tensorShape": {"dim": [{"size": "1"}]}}}}}, {"name": "StatefulPartitionedCall/model/conv2d_transpose_22/strided_slice/stack_2", "op": "Const", "attr": {"dtype": {"type": "DT_INT32"}, "value": {"tensor": {"dtype": "DT_INT32", "tensorShape": {"dim": [{"size": "1"}]}}}}}, {"name": "StatefulPartitionedCall/model/conv2d_transpose_22/stack/1", "op": "Const", "attr": {"dtype": {"type": "DT_INT32"}, "value": {"tensor": {"dtype": "DT_INT32", "tensorShape": {}}}}}, {"name": "StatefulPartitionedCall/model/conv2d_transpose_22/stack/2", "op": "Const", "attr": {"dtype": {"type": "DT_INT32"}, "value": {"tensor": {"dtype": "DT_INT32", "tensorShape": {}}}}}, {"name": "StatefulPartitionedCall/model/conv2d_transpose_22/stack/3", "op": "Const", "attr": {"dtype": {"type": "DT_INT32"}, "value": {"tensor": {"dtype": "DT_INT32", "tensorShape": {}}}}}, {"name": "StatefulPartitionedCall/model/conv2d_transpose_22/conv2d_transpose/ReadVariableOp", "op": "Const", "attr": {"dtype": {"type": "DT_FLOAT"}, "value": {"tensor": {"dtype": "DT_FLOAT", "tensorShape": {"dim": [{"size": "3"}, {"size": "3"}, {"size": "4"}, {"size": "16"}]}}}}}, {"name": "StatefulPartitionedCall/model/conv2d_transpose_21/strided_slice/stack", "op": "Const", "attr": {"value": {"tensor": {"dtype": "DT_INT32", "tensorShape": {"dim": [{"size": "1"}]}}}, "dtype": {"type": "DT_INT32"}}}, {"name": "StatefulPartitionedCall/model/conv2d_transpose_21/strided_slice/stack_1", "op": "Const", "attr": {"value": {"tensor": {"dtype": "DT_INT32", "tensorShape": {"dim": [{"size": "1"}]}}}, "dtype": {"type": "DT_INT32"}}}, {"name": "StatefulPartitionedCall/model/conv2d_transpose_21/strided_slice/stack_2", "op": "Const", "attr": {"dtype": {"type": "DT_INT32"}, "value": {"tensor": {"dtype": "DT_INT32", "tensorShape": {"dim": [{"size": "1"}]}}}}}, {"name": "StatefulPartitionedCall/model/conv2d_transpose_21/stack/1", "op": "Const", "attr": {"value": {"tensor": {"dtype": "DT_INT32", "tensorShape": {}}}, "dtype": {"type": "DT_INT32"}}}, {"name": "StatefulPartitionedCall/model/conv2d_transpose_21/stack/2", "op": "Const", "attr": {"value": {"tensor": {"dtype": "DT_INT32", "tensorShape": {}}}, "dtype": {"type": "DT_INT32"}}}, {"name": "StatefulPartitionedCall/model/conv2d_transpose_21/stack/3", "op": "Const", "attr": {"value": {"tensor": {"dtype": "DT_INT32", "tensorShape": {}}}, "dtype": {"type": "DT_INT32"}}}, {"name": "StatefulPartitionedCall/model/conv2d_transpose_21/conv2d_transpose/ReadVariableOp", "op": "Const", "attr": {"dtype": {"type": "DT_FLOAT"}, "value": {"tensor": {"dtype": "DT_FLOAT", "tensorShape": {"dim": [{"size": "3"}, {"size": "3"}, {"size": "16"}, {"size": "16"}]}}}}}, {"name": "StatefulPartitionedCall/model/conv2d_transpose_20/strided_slice/stack", "op": "Const", "attr": {"value": {"tensor": {"dtype": "DT_INT32", "tensorShape": {"dim": [{"size": "1"}]}}}, "dtype": {"type": "DT_INT32"}}}, {"name": "StatefulPartitionedCall/model/conv2d_transpose_20/strided_slice/stack_1", "op": "Const", "attr": {"dtype": {"type": "DT_INT32"}, "value": {"tensor": {"dtype": "DT_INT32", "tensorShape": {"dim": [{"size": "1"}]}}}}}, {"name": "StatefulPartitionedCall/model/conv2d_transpose_20/strided_slice/stack_2", "op": "Const", "attr": {"dtype": {"type": "DT_INT32"}, "value": {"tensor": {"dtype": "DT_INT32", "tensorShape": {"dim": [{"size": "1"}]}}}}}, {"name": "StatefulPartitionedCall/model/conv2d_transpose_20/stack/1", "op": "Const", "attr": {"value": {"tensor": {"dtype": "DT_INT32", "tensorShape": {}}}, "dtype": {"type": "DT_INT32"}}}, {"name": "StatefulPartitionedCall/model/conv2d_transpose_20/stack/2", "op": "Const", "attr": {"value": {"tensor": {"dtype": "DT_INT32", "tensorShape": {}}}, "dtype": {"type": "DT_INT32"}}}, {"name": "StatefulPartitionedCall/model/conv2d_transpose_20/stack/3", "op": "Const", "attr": {"dtype": {"type": "DT_INT32"}, "value": {"tensor": {"dtype": "DT_INT32", "tensorShape": {}}}}}, {"name": "StatefulPartitionedCall/model/conv2d_transpose_20/conv2d_transpose/ReadVariableOp", "op": "Const", "attr": {"dtype": {"type": "DT_FLOAT"}, "value": {"tensor": {"dtype": "DT_FLOAT", "tensorShape": {"dim": [{"size": "3"}, {"size": "3"}, {"size": "16"}, {"size": "64"}]}}}}}, {"name": "StatefulPartitionedCall/model/conv2d_transpose_19/strided_slice/stack", "op": "Const", "attr": {"dtype": {"type": "DT_INT32"}, "value": {"tensor": {"dtype": "DT_INT32", "tensorShape": {"dim": [{"size": "1"}]}}}}}, {"name": "StatefulPartitionedCall/model/conv2d_transpose_19/strided_slice/stack_1", "op": "Const", "attr": {"value": {"tensor": {"dtype": "DT_INT32", "tensorShape": {"dim": [{"size": "1"}]}}}, "dtype": {"type": "DT_INT32"}}}, {"name": "StatefulPartitionedCall/model/conv2d_transpose_19/strided_slice/stack_2", "op": "Const", "attr": {"value": {"tensor": {"dtype": "DT_INT32", "tensorShape": {"dim": [{"size": "1"}]}}}, "dtype": {"type": "DT_INT32"}}}, {"name": "StatefulPartitionedCall/model/conv2d_transpose_19/stack/1", "op": "Const", "attr": {"dtype": {"type": "DT_INT32"}, "value": {"tensor": {"dtype": "DT_INT32", "tensorShape": {}}}}}, {"name": "StatefulPartitionedCall/model/conv2d_transpose_19/stack/2", "op": "Const", "attr": {"value": {"tensor": {"dtype": "DT_INT32", "tensorShape": {}}}, "dtype": {"type": "DT_INT32"}}}, {"name": "StatefulPartitionedCall/model/conv2d_transpose_19/stack/3", "op": "Const", "attr": {"value": {"tensor": {"dtype": "DT_INT32", "tensorShape": {}}}, "dtype": {"type": "DT_INT32"}}}, {"name": "StatefulPartitionedCall/model/conv2d_transpose_19/conv2d_transpose/ReadVariableOp", "op": "Const", "attr": {"dtype": {"type": "DT_FLOAT"}, "value": {"tensor": {"dtype": "DT_FLOAT", "tensorShape": {"dim": [{"size": "3"}, {"size": "3"}, {"size": "64"}, {"size": "64"}]}}}}}, {"name": "StatefulPartitionedCall/model/conv2d_transpose_18/strided_slice/stack", "op": "Const", "attr": {"value": {"tensor": {"dtype": "DT_INT32", "tensorShape": {"dim": [{"size": "1"}]}}}, "dtype": {"type": "DT_INT32"}}}, {"name": "StatefulPartitionedCall/model/conv2d_transpose_18/strided_slice/stack_1", "op": "Const", "attr": {"dtype": {"type": "DT_INT32"}, "value": {"tensor": {"dtype": "DT_INT32", "tensorShape": {"dim": [{"size": "1"}]}}}}}, {"name": "StatefulPartitionedCall/model/conv2d_transpose_18/strided_slice/stack_2", "op": "Const", "attr": {"value": {"tensor": {"dtype": "DT_INT32", "tensorShape": {"dim": [{"size": "1"}]}}}, "dtype": {"type": "DT_INT32"}}}, {"name": "StatefulPartitionedCall/model/conv2d_transpose_18/stack/1", "op": "Const", "attr": {"dtype": {"type": "DT_INT32"}, "value": {"tensor": {"dtype": "DT_INT32", "tensorShape": {}}}}}, {"name": "StatefulPartitionedCall/model/conv2d_transpose_18/stack/2", "op": "Const", "attr": {"value": {"tensor": {"dtype": "DT_INT32", "tensorShape": {}}}, "dtype": {"type": "DT_INT32"}}}, {"name": "StatefulPartitionedCall/model/conv2d_transpose_18/stack/3", "op": "Const", "attr": {"value": {"tensor": {"dtype": "DT_INT32", "tensorShape": {}}}, "dtype": {"type": "DT_INT32"}}}, {"name": "StatefulPartitionedCall/model/conv2d_transpose_18/conv2d_transpose/ReadVariableOp", "op": "Const", "attr": {"value": {"tensor": {"dtype": "DT_FLOAT", "tensorShape": {"dim": [{"size": "3"}, {"size": "3"}, {"size": "64"}, {"size": "97"}]}}}, "dtype": {"type": "DT_FLOAT"}}}, {"name": "StatefulPartitionedCall/model/conv2d_40/Conv2D/ReadVariableOp", "op": "Const", "attr": {"dtype": {"type": "DT_FLOAT"}, "value": {"tensor": {"dtype": "DT_FLOAT", "tensorShape": {"dim": [{"size": "3"}, {"size": "3"}, {"size": "1"}, {"size": "32"}]}}}}}, {"name": "StatefulPartitionedCall/model/conv2d_40/BiasAdd/ReadVariableOp", "op": "Const", "attr": {"dtype": {"type": "DT_FLOAT"}, "value": {"tensor": {"dtype": "DT_FLOAT", "tensorShape": {"dim": [{"size": "32"}]}}}}}, {"name": "StatefulPartitionedCall/model/concatenate_14/concat/axis", "op": "Const", "attr": {"dtype": {"type": "DT_INT32"}, "value": {"tensor": {"dtype": "DT_INT32", "tensorShape": {}}}}}, {"name": "StatefulPartitionedCall/model/conv2d_41/Conv2D/ReadVariableOp", "op": "Const", "attr": {"dtype": {"type": "DT_FLOAT"}, "value": {"tensor": {"dtype": "DT_FLOAT", "tensorShape": {"dim": [{"size": "3"}, {"size": "3"}, {"size": "33"}, {"size": "32"}]}}}}}, {"name": "StatefulPartitionedCall/model/conv2d_41/BiasAdd/ReadVariableOp", "op": "Const", "attr": {"value": {"tensor": {"dtype": "DT_FLOAT", "tensorShape": {"dim": [{"size": "32"}]}}}, "dtype": {"type": "DT_FLOAT"}}}, {"name": "StatefulPartitionedCall/model/concatenate_15/concat/axis", "op": "Const", "attr": {"value": {"tensor": {"dtype": "DT_INT32", "tensorShape": {}}}, "dtype": {"type": "DT_INT32"}}}, {"name": "StatefulPartitionedCall/model/conv2d_42/Conv2D/ReadVariableOp", "op": "Const", "attr": {"dtype": {"type": "DT_FLOAT"}, "value": {"tensor": {"dtype": "DT_FLOAT", "tensorShape": {"dim": [{"size": "3"}, {"size": "3"}, {"size": "65"}, {"size": "32"}]}}}}}, {"name": "StatefulPartitionedCall/model/conv2d_42/BiasAdd/ReadVariableOp", "op": "Const", "attr": {"dtype": {"type": "DT_FLOAT"}, "value": {"tensor": {"dtype": "DT_FLOAT", "tensorShape": {"dim": [{"size": "32"}]}}}}}, {"name": "StatefulPartitionedCall/model/concatenate_16/concat/axis", "op": "Const", "attr": {"dtype": {"type": "DT_INT32"}, "value": {"tensor": {"dtype": "DT_INT32", "tensorShape": {}}}}}, {"name": "StatefulPartitionedCall/model/conv2d_43/Conv2D/ReadVariableOp", "op": "Const", "attr": {"value": {"tensor": {"dtype": "DT_FLOAT", "tensorShape": {"dim": [{"size": "3"}, {"size": "3"}, {"size": "97"}, {"size": "32"}]}}}, "dtype": {"type": "DT_FLOAT"}}}, {"name": "StatefulPartitionedCall/model/conv2d_43/BiasAdd/ReadVariableOp", "op": "Const", "attr": {"value": {"tensor": {"dtype": "DT_FLOAT", "tensorShape": {"dim": [{"size": "32"}]}}}, "dtype": {"type": "DT_FLOAT"}}}, {"name": "StatefulPartitionedCall/model/conv2d_44/Conv2D/ReadVariableOp", "op": "Const", "attr": {"dtype": {"type": "DT_FLOAT"}, "value": {"tensor": {"dtype": "DT_FLOAT", "tensorShape": {"dim": [{"size": "3"}, {"size": "3"}, {"size": "32"}, {"size": "32"}]}}}}}, {"name": "StatefulPartitionedCall/model/conv2d_44/BiasAdd/ReadVariableOp", "op": "Const", "attr": {"value": {"tensor": {"dtype": "DT_FLOAT", "tensorShape": {"dim": [{"size": "32"}]}}}, "dtype": {"type": "DT_FLOAT"}}}, {"name": "StatefulPartitionedCall/model/concatenate_17/concat/axis", "op": "Const", "attr": {"value": {"tensor": {"dtype": "DT_INT32", "tensorShape": {}}}, "dtype": {"type": "DT_INT32"}}}, {"name": "StatefulPartitionedCall/model/conv2d_45/Conv2D/ReadVariableOp", "op": "Const", "attr": {"dtype": {"type": "DT_FLOAT"}, "value": {"tensor": {"dtype": "DT_FLOAT", "tensorShape": {"dim": [{"size": "3"}, {"size": "3"}, {"size": "64"}, {"size": "32"}]}}}}}, {"name": "StatefulPartitionedCall/model/conv2d_45/BiasAdd/ReadVariableOp", "op": "Const", "attr": {"value": {"tensor": {"dtype": "DT_FLOAT", "tensorShape": {"dim": [{"size": "32"}]}}}, "dtype": {"type": "DT_FLOAT"}}}, {"name": "StatefulPartitionedCall/model/concatenate_18/concat/axis", "op": "Const", "attr": {"value": {"tensor": {"dtype": "DT_INT32", "tensorShape": {}}}, "dtype": {"type": "DT_INT32"}}}, {"name": "StatefulPartitionedCall/model/conv2d_46/Conv2D/ReadVariableOp", "op": "Const", "attr": {"dtype": {"type": "DT_FLOAT"}, "value": {"tensor": {"dtype": "DT_FLOAT", "tensorShape": {"dim": [{"size": "3"}, {"size": "3"}, {"size": "96"}, {"size": "32"}]}}}}}, {"name": "StatefulPartitionedCall/model/conv2d_46/BiasAdd/ReadVariableOp", "op": "Const", "attr": {"dtype": {"type": "DT_FLOAT"}, "value": {"tensor": {"dtype": "DT_FLOAT", "tensorShape": {"dim": [{"size": "32"}]}}}}}, {"name": "StatefulPartitionedCall/model/concatenate_19/concat/axis", "op": "Const", "attr": {"dtype": {"type": "DT_INT32"}, "value": {"tensor": {"dtype": "DT_INT32", "tensorShape": {}}}}}, {"name": "StatefulPartitionedCall/model/conv2d_47/Conv2D/ReadVariableOp", "op": "Const", "attr": {"value": {"tensor": {"dtype": "DT_FLOAT", "tensorShape": {"dim": [{"size": "3"}, {"size": "3"}, {"size": "128"}, {"size": "32"}]}}}, "dtype": {"type": "DT_FLOAT"}}}, {"name": "StatefulPartitionedCall/model/conv2d_47/BiasAdd/ReadVariableOp", "op": "Const", "attr": {"dtype": {"type": "DT_FLOAT"}, "value": {"tensor": {"dtype": "DT_FLOAT", "tensorShape": {"dim": [{"size": "32"}]}}}}}, {"name": "StatefulPartitionedCall/model/conv2d_48/Conv2D/ReadVariableOp", "op": "Const", "attr": {"value": {"tensor": {"dtype": "DT_FLOAT", "tensorShape": {"dim": [{"size": "3"}, {"size": "3"}, {"size": "32"}, {"size": "32"}]}}}, "dtype": {"type": "DT_FLOAT"}}}, {"name": "StatefulPartitionedCall/model/conv2d_48/BiasAdd/ReadVariableOp", "op": "Const", "attr": {"dtype": {"type": "DT_FLOAT"}, "value": {"tensor": {"dtype": "DT_FLOAT", "tensorShape": {"dim": [{"size": "32"}]}}}}}, {"name": "StatefulPartitionedCall/model/concatenate_20/concat/axis", "op": "Const", "attr": {"value": {"tensor": {"dtype": "DT_INT32", "tensorShape": {}}}, "dtype": {"type": "DT_INT32"}}}, {"name": "StatefulPartitionedCall/model/conv2d_49/Conv2D/ReadVariableOp", "op": "Const", "attr": {"value": {"tensor": {"dtype": "DT_FLOAT", "tensorShape": {"dim": [{"size": "3"}, {"size": "3"}, {"size": "64"}, {"size": "32"}]}}}, "dtype": {"type": "DT_FLOAT"}}}, {"name": "StatefulPartitionedCall/model/conv2d_49/BiasAdd/ReadVariableOp", "op": "Const", "attr": {"value": {"tensor": {"dtype": "DT_FLOAT", "tensorShape": {"dim": [{"size": "32"}]}}}, "dtype": {"type": "DT_FLOAT"}}}, {"name": "StatefulPartitionedCall/model/concatenate_21/concat/axis", "op": "Const", "attr": {"dtype": {"type": "DT_INT32"}, "value": {"tensor": {"dtype": "DT_INT32", "tensorShape": {}}}}}, {"name": "StatefulPartitionedCall/model/conv2d_50/Conv2D/ReadVariableOp", "op": "Const", "attr": {"value": {"tensor": {"dtype": "DT_FLOAT", "tensorShape": {"dim": [{"size": "3"}, {"size": "3"}, {"size": "96"}, {"size": "32"}]}}}, "dtype": {"type": "DT_FLOAT"}}}, {"name": "StatefulPartitionedCall/model/conv2d_50/BiasAdd/ReadVariableOp", "op": "Const", "attr": {"dtype": {"type": "DT_FLOAT"}, "value": {"tensor": {"dtype": "DT_FLOAT", "tensorShape": {"dim": [{"size": "32"}]}}}}}, {"name": "StatefulPartitionedCall/model/concatenate_22/concat/axis", "op": "Const", "attr": {"value": {"tensor": {"dtype": "DT_INT32", "tensorShape": {}}}, "dtype": {"type": "DT_INT32"}}}, {"name": "StatefulPartitionedCall/model/conv2d_51/Conv2D/ReadVariableOp", "op": "Const", "attr": {"value": {"tensor": {"dtype": "DT_FLOAT", "tensorShape": {"dim": [{"size": "3"}, {"size": "3"}, {"size": "128"}, {"size": "32"}]}}}, "dtype": {"type": "DT_FLOAT"}}}, {"name": "StatefulPartitionedCall/model/conv2d_51/BiasAdd/ReadVariableOp", "op": "Const", "attr": {"dtype": {"type": "DT_FLOAT"}, "value": {"tensor": {"dtype": "DT_FLOAT", "tensorShape": {"dim": [{"size": "32"}]}}}}}, {"name": "StatefulPartitionedCall/model/concatenate_23/concat/axis", "op": "Const", "attr": {"dtype": {"type": "DT_INT32"}, "value": {"tensor": {"dtype": "DT_INT32", "tensorShape": {}}}}}, {"name": "StatefulPartitionedCall/model/conv2d_transpose_18/BiasAdd/ReadVariableOp", "op": "Const", "attr": {"dtype": {"type": "DT_FLOAT"}, "value": {"tensor": {"dtype": "DT_FLOAT", "tensorShape": {"dim": [{"size": "64"}]}}}}}, {"name": "StatefulPartitionedCall/model/conv2d_transpose_19/BiasAdd/ReadVariableOp", "op": "Const", "attr": {"value": {"tensor": {"dtype": "DT_FLOAT", "tensorShape": {"dim": [{"size": "64"}]}}}, "dtype": {"type": "DT_FLOAT"}}}, {"name": "StatefulPartitionedCall/model/conv2d_transpose_20/BiasAdd/ReadVariableOp", "op": "Const", "attr": {"value": {"tensor": {"dtype": "DT_FLOAT", "tensorShape": {"dim": [{"size": "16"}]}}}, "dtype": {"type": "DT_FLOAT"}}}, {"name": "StatefulPartitionedCall/model/conv2d_transpose_21/BiasAdd/ReadVariableOp", "op": "Const", "attr": {"dtype": {"type": "DT_FLOAT"}, "value": {"tensor": {"dtype": "DT_FLOAT", "tensorShape": {"dim": [{"size": "16"}]}}}}}, {"name": "StatefulPartitionedCall/model/conv2d_transpose_22/BiasAdd/ReadVariableOp", "op": "Const", "attr": {"dtype": {"type": "DT_FLOAT"}, "value": {"tensor": {"dtype": "DT_FLOAT", "tensorShape": {"dim": [{"size": "4"}]}}}}}, {"name": "StatefulPartitionedCall/model/conv2d_transpose_23/BiasAdd/ReadVariableOp", "op": "Const", "attr": {"dtype": {"type": "DT_FLOAT"}, "value": {"tensor": {"dtype": "DT_FLOAT", "tensorShape": {"dim": [{"size": "1"}]}}}}}, {"name": "input_6", "op": "Placeholder", "attr": {"shape": {"shape": {"dim": [{"size": "-1"}, {"size": "64"}, {"size": "64"}, {"size": "1"}]}}, "dtype": {"type": "DT_FLOAT"}}}, {"name": "StatefulPartitionedCall/model/batch_normalization_28/FusedBatchNormV3/Offset", "op": "Const", "attr": {"dtype": {"type": "DT_FLOAT"}, "value": {"tensor": {"dtype": "DT_FLOAT", "tensorShape": {"dim": [{"size": "32"}]}}}}}, {"name": "StatefulPartitionedCall/model/batch_normalization_27/FusedBatchNormV3/Scaled", "op": "Const", "attr": {"value": {"tensor": {"dtype": "DT_FLOAT", "tensorShape": {"dim": [{"size": "32"}]}}}, "dtype": {"type": "DT_FLOAT"}}}, {"name": "StatefulPartitionedCall/model/batch_normalization_27/FusedBatchNormV3/Offset", "op": "Const", "attr": {"dtype": {"type": "DT_FLOAT"}, "value": {"tensor": {"dtype": "DT_FLOAT", "tensorShape": {"dim": [{"size": "32"}]}}}}}, {"name": "StatefulPartitionedCall/model/batch_normalization_26/FusedBatchNormV3/Scaled", "op": "Const", "attr": {"dtype": {"type": "DT_FLOAT"}, "value": {"tensor": {"dtype": "DT_FLOAT", "tensorShape": {"dim": [{"size": "32"}]}}}}}, {"name": "StatefulPartitionedCall/model/batch_normalization_26/FusedBatchNormV3/Offset", "op": "Const", "attr": {"dtype": {"type": "DT_FLOAT"}, "value": {"tensor": {"dtype": "DT_FLOAT", "tensorShape": {"dim": [{"size": "32"}]}}}}}, {"name": "StatefulPartitionedCall/model/batch_normalization_25/FusedBatchNormV3/Scaled", "op": "Const", "attr": {"dtype": {"type": "DT_FLOAT"}, "value": {"tensor": {"dtype": "DT_FLOAT", "tensorShape": {"dim": [{"size": "32"}]}}}}}, {"name": "StatefulPartitionedCall/model/batch_normalization_25/FusedBatchNormV3/Offset", "op": "Const", "attr": {"dtype": {"type": "DT_FLOAT"}, "value": {"tensor": {"dtype": "DT_FLOAT", "tensorShape": {"dim": [{"size": "32"}]}}}}}, {"name": "StatefulPartitionedCall/model/batch_normalization_30/FusedBatchNormV3/Scaled", "op": "Const", "attr": {"value": {"tensor": {"dtype": "DT_FLOAT", "tensorShape": {"dim": [{"size": "32"}]}}}, "dtype": {"type": "DT_FLOAT"}}}, {"name": "StatefulPartitionedCall/model/batch_normalization_30/FusedBatchNormV3/Offset", "op": "Const", "attr": {"dtype": {"type": "DT_FLOAT"}, "value": {"tensor": {"dtype": "DT_FLOAT", "tensorShape": {"dim": [{"size": "32"}]}}}}}, {"name": "StatefulPartitionedCall/model/batch_normalization_29/FusedBatchNormV3/Scaled", "op": "Const", "attr": {"dtype": {"type": "DT_FLOAT"}, "value": {"tensor": {"dtype": "DT_FLOAT", "tensorShape": {"dim": [{"size": "32"}]}}}}}, {"name": "StatefulPartitionedCall/model/batch_normalization_29/FusedBatchNormV3/Offset", "op": "Const", "attr": {"dtype": {"type": "DT_FLOAT"}, "value": {"tensor": {"dtype": "DT_FLOAT", "tensorShape": {"dim": [{"size": "32"}]}}}}}, {"name": "StatefulPartitionedCall/model/batch_normalization_28/FusedBatchNormV3/Scaled", "op": "Const", "attr": {"value": {"tensor": {"dtype": "DT_FLOAT", "tensorShape": {"dim": [{"size": "32"}]}}}, "dtype": {"type": "DT_FLOAT"}}}, {"name": "StatefulPartitionedCall/model/conv2d_40/Relu", "op": "_FusedConv2D", "input": ["input_6", "StatefulPartitionedCall/model/conv2d_40/Conv2D/ReadVariableOp", "StatefulPartitionedCall/model/conv2d_40/BiasAdd/ReadVariableOp"], "device": "/device:CPU:0", "attr": {"strides": {"list": {"i": ["1", "1", "1", "1"]}}, "padding": {"s": "U0FNRQ=="}, "T": {"type": "DT_FLOAT"}, "fused_ops": {"list": {"s": ["Qmlhc0FkZA==", "UmVsdQ=="]}}, "use_cudnn_on_gpu": {"b": true}, "num_args": {"i": "1"}, "epsilon": {"f": 0.0}, "leakyrelu_alpha": {"f": 0.2}, "dilations": {"list": {"i": ["1", "1", "1", "1"]}}, "data_format": {"s": "TkhXQw=="}, "explicit_paddings": {"list": {}}}}, {"name": "StatefulPartitionedCall/model/concatenate_14/concat", "op": "ConcatV2", "input": ["input_6", "StatefulPartitionedCall/model/conv2d_40/Relu", "StatefulPartitionedCall/model/concatenate_14/concat/axis"], "attr": {"N": {"i": "2"}, "T": {"type": "DT_FLOAT"}, "Tidx": {"type": "DT_INT32"}}}, {"name": "StatefulPartitionedCall/model/conv2d_41/Relu", "op": "_FusedConv2D", "input": ["StatefulPartitionedCall/model/concatenate_14/concat", "StatefulPartitionedCall/model/conv2d_41/Conv2D/ReadVariableOp", "StatefulPartitionedCall/model/conv2d_41/BiasAdd/ReadVariableOp"], "device": "/device:CPU:0", "attr": {"T": {"type": "DT_FLOAT"}, "dilations": {"list": {"i": ["1", "1", "1", "1"]}}, "use_cudnn_on_gpu": {"b": true}, "fused_ops": {"list": {"s": ["Qmlhc0FkZA==", "UmVsdQ=="]}}, "padding": {"s": "U0FNRQ=="}, "explicit_paddings": {"list": {}}, "num_args": {"i": "1"}, "strides": {"list": {"i": ["1", "1", "1", "1"]}}, "leakyrelu_alpha": {"f": 0.2}, "epsilon": {"f": 0.0}, "data_format": {"s": "TkhXQw=="}}}, {"name": "StatefulPartitionedCall/model/batch_normalization_25/FusedBatchNormV3/Mul", "op": "Mul", "input": ["StatefulPartitionedCall/model/conv2d_41/Relu", "StatefulPartitionedCall/model/batch_normalization_25/FusedBatchNormV3/Scaled"], "attr": {"T": {"type": "DT_FLOAT"}}}, {"name": "StatefulPartitionedCall/model/batch_normalization_25/FusedBatchNormV3", "op": "Add", "input": ["StatefulPartitionedCall/model/batch_normalization_25/FusedBatchNormV3/Mul", "StatefulPartitionedCall/model/batch_normalization_25/FusedBatchNormV3/Offset"], "attr": {"T": {"type": "DT_FLOAT"}}}, {"name": "StatefulPartitionedCall/model/concatenate_15/concat", "op": "ConcatV2", "input": ["input_6", "StatefulPartitionedCall/model/conv2d_40/Relu", "StatefulPartitionedCall/model/batch_normalization_25/FusedBatchNormV3", "StatefulPartitionedCall/model/concatenate_15/concat/axis"], "attr": {"Tidx": {"type": "DT_INT32"}, "N": {"i": "3"}, "T": {"type": "DT_FLOAT"}}}, {"name": "StatefulPartitionedCall/model/conv2d_42/Relu", "op": "_FusedConv2D", "input": ["StatefulPartitionedCall/model/concatenate_15/concat", "StatefulPartitionedCall/model/conv2d_42/Conv2D/ReadVariableOp", "StatefulPartitionedCall/model/conv2d_42/BiasAdd/ReadVariableOp"], "device": "/device:CPU:0", "attr": {"use_cudnn_on_gpu": {"b": true}, "strides": {"list": {"i": ["1", "1", "1", "1"]}}, "dilations": {"list": {"i": ["1", "1", "1", "1"]}}, "explicit_paddings": {"list": {}}, "data_format": {"s": "TkhXQw=="}, "epsilon": {"f": 0.0}, "T": {"type": "DT_FLOAT"}, "padding": {"s": "U0FNRQ=="}, "num_args": {"i": "1"}, "fused_ops": {"list": {"s": ["Qmlhc0FkZA==", "UmVsdQ=="]}}, "leakyrelu_alpha": {"f": 0.2}}}, {"name": "StatefulPartitionedCall/model/batch_normalization_26/FusedBatchNormV3/Mul", "op": "Mul", "input": ["StatefulPartitionedCall/model/conv2d_42/Relu", "StatefulPartitionedCall/model/batch_normalization_26/FusedBatchNormV3/Scaled"], "attr": {"T": {"type": "DT_FLOAT"}}}, {"name": "StatefulPartitionedCall/model/batch_normalization_26/FusedBatchNormV3", "op": "Add", "input": ["StatefulPartitionedCall/model/batch_normalization_26/FusedBatchNormV3/Mul", "StatefulPartitionedCall/model/batch_normalization_26/FusedBatchNormV3/Offset"], "attr": {"T": {"type": "DT_FLOAT"}}}, {"name": "StatefulPartitionedCall/model/concatenate_16/concat", "op": "ConcatV2", "input": ["input_6", "StatefulPartitionedCall/model/conv2d_40/Relu", "StatefulPartitionedCall/model/batch_normalization_25/FusedBatchNormV3", "StatefulPartitionedCall/model/batch_normalization_26/FusedBatchNormV3", "StatefulPartitionedCall/model/concatenate_16/concat/axis"], "attr": {"T": {"type": "DT_FLOAT"}, "Tidx": {"type": "DT_INT32"}, "N": {"i": "4"}}}, {"name": "StatefulPartitionedCall/model/conv2d_43/Relu", "op": "_FusedConv2D", "input": ["StatefulPartitionedCall/model/concatenate_16/concat", "StatefulPartitionedCall/model/conv2d_43/Conv2D/ReadVariableOp", "StatefulPartitionedCall/model/conv2d_43/BiasAdd/ReadVariableOp"], "device": "/device:CPU:0", "attr": {"strides": {"list": {"i": ["1", "1", "1", "1"]}}, "fused_ops": {"list": {"s": ["Qmlhc0FkZA==", "UmVsdQ=="]}}, "T": {"type": "DT_FLOAT"}, "dilations": {"list": {"i": ["1", "1", "1", "1"]}}, "leakyrelu_alpha": {"f": 0.2}, "explicit_paddings": {"list": {}}, "epsilon": {"f": 0.0}, "padding": {"s": "U0FNRQ=="}, "data_format": {"s": "TkhXQw=="}, "use_cudnn_on_gpu": {"b": true}, "num_args": {"i": "1"}}}, {"name": "StatefulPartitionedCall/model/conv2d_44/Relu", "op": "_FusedConv2D", "input": ["StatefulPartitionedCall/model/conv2d_43/Relu", "StatefulPartitionedCall/model/conv2d_44/Conv2D/ReadVariableOp", "StatefulPartitionedCall/model/conv2d_44/BiasAdd/ReadVariableOp"], "device": "/device:CPU:0", "attr": {"fused_ops": {"list": {"s": ["Qmlhc0FkZA==", "UmVsdQ=="]}}, "use_cudnn_on_gpu": {"b": true}, "dilations": {"list": {"i": ["1", "1", "1", "1"]}}, "explicit_paddings": {"list": {}}, "data_format": {"s": "TkhXQw=="}, "T": {"type": "DT_FLOAT"}, "num_args": {"i": "1"}, "epsilon": {"f": 0.0}, "leakyrelu_alpha": {"f": 0.2}, "strides": {"list": {"i": ["1", "1", "1", "1"]}}, "padding": {"s": "U0FNRQ=="}}}, {"name": "StatefulPartitionedCall/model/concatenate_17/concat", "op": "ConcatV2", "input": ["StatefulPartitionedCall/model/conv2d_43/Relu", "StatefulPartitionedCall/model/conv2d_44/Relu", "StatefulPartitionedCall/model/concatenate_17/concat/axis"], "attr": {"N": {"i": "2"}, "T": {"type": "DT_FLOAT"}, "Tidx": {"type": "DT_INT32"}}}, {"name": "StatefulPartitionedCall/model/conv2d_45/Relu", "op": "_FusedConv2D", "input": ["StatefulPartitionedCall/model/concatenate_17/concat", "StatefulPartitionedCall/model/conv2d_45/Conv2D/ReadVariableOp", "StatefulPartitionedCall/model/conv2d_45/BiasAdd/ReadVariableOp"], "device": "/device:CPU:0", "attr": {"strides": {"list": {"i": ["1", "1", "1", "1"]}}, "epsilon": {"f": 0.0}, "num_args": {"i": "1"}, "padding": {"s": "U0FNRQ=="}, "explicit_paddings": {"list": {}}, "use_cudnn_on_gpu": {"b": true}, "leakyrelu_alpha": {"f": 0.2}, "fused_ops": {"list": {"s": ["Qmlhc0FkZA==", "UmVsdQ=="]}}, "dilations": {"list": {"i": ["1", "1", "1", "1"]}}, "T": {"type": "DT_FLOAT"}, "data_format": {"s": "TkhXQw=="}}}, {"name": "StatefulPartitionedCall/model/batch_normalization_27/FusedBatchNormV3/Mul", "op": "Mul", "input": ["StatefulPartitionedCall/model/conv2d_45/Relu", "StatefulPartitionedCall/model/batch_normalization_27/FusedBatchNormV3/Scaled"], "attr": {"T": {"type": "DT_FLOAT"}}}, {"name": "StatefulPartitionedCall/model/batch_normalization_27/FusedBatchNormV3", "op": "Add", "input": ["StatefulPartitionedCall/model/batch_normalization_27/FusedBatchNormV3/Mul", "StatefulPartitionedCall/model/batch_normalization_27/FusedBatchNormV3/Offset"], "attr": {"T": {"type": "DT_FLOAT"}}}, {"name": "StatefulPartitionedCall/model/concatenate_18/concat", "op": "ConcatV2", "input": ["StatefulPartitionedCall/model/conv2d_43/Relu", "StatefulPartitionedCall/model/conv2d_44/Relu", "StatefulPartitionedCall/model/batch_normalization_27/FusedBatchNormV3", "StatefulPartitionedCall/model/concatenate_18/concat/axis"], "attr": {"T": {"type": "DT_FLOAT"}, "Tidx": {"type": "DT_INT32"}, "N": {"i": "3"}}}, {"name": "StatefulPartitionedCall/model/conv2d_46/Relu", "op": "_FusedConv2D", "input": ["StatefulPartitionedCall/model/concatenate_18/concat", "StatefulPartitionedCall/model/conv2d_46/Conv2D/ReadVariableOp", "StatefulPartitionedCall/model/conv2d_46/BiasAdd/ReadVariableOp"], "device": "/device:CPU:0", "attr": {"padding": {"s": "U0FNRQ=="}, "epsilon": {"f": 0.0}, "T": {"type": "DT_FLOAT"}, "leakyrelu_alpha": {"f": 0.2}, "dilations": {"list": {"i": ["1", "1", "1", "1"]}}, "strides": {"list": {"i": ["1", "1", "1", "1"]}}, "fused_ops": {"list": {"s": ["Qmlhc0FkZA==", "UmVsdQ=="]}}, "num_args": {"i": "1"}, "data_format": {"s": "TkhXQw=="}, "explicit_paddings": {"list": {}}, "use_cudnn_on_gpu": {"b": true}}}, {"name": "StatefulPartitionedCall/model/batch_normalization_28/FusedBatchNormV3/Mul", "op": "Mul", "input": ["StatefulPartitionedCall/model/conv2d_46/Relu", "StatefulPartitionedCall/model/batch_normalization_28/FusedBatchNormV3/Scaled"], "attr": {"T": {"type": "DT_FLOAT"}}}, {"name": "StatefulPartitionedCall/model/batch_normalization_28/FusedBatchNormV3", "op": "Add", "input": ["StatefulPartitionedCall/model/batch_normalization_28/FusedBatchNormV3/Mul", "StatefulPartitionedCall/model/batch_normalization_28/FusedBatchNormV3/Offset"], "attr": {"T": {"type": "DT_FLOAT"}}}, {"name": "StatefulPartitionedCall/model/concatenate_19/concat", "op": "ConcatV2", "input": ["StatefulPartitionedCall/model/conv2d_43/Relu", "StatefulPartitionedCall/model/conv2d_44/Relu", "StatefulPartitionedCall/model/batch_normalization_27/FusedBatchNormV3", "StatefulPartitionedCall/model/batch_normalization_28/FusedBatchNormV3", "StatefulPartitionedCall/model/concatenate_19/concat/axis"], "attr": {"T": {"type": "DT_FLOAT"}, "Tidx": {"type": "DT_INT32"}, "N": {"i": "4"}}}, {"name": "StatefulPartitionedCall/model/conv2d_47/Relu", "op": "_FusedConv2D", "input": ["StatefulPartitionedCall/model/concatenate_19/concat", "StatefulPartitionedCall/model/conv2d_47/Conv2D/ReadVariableOp", "StatefulPartitionedCall/model/conv2d_47/BiasAdd/ReadVariableOp"], "device": "/device:CPU:0", "attr": {"explicit_paddings": {"list": {}}, "strides": {"list": {"i": ["1", "1", "1", "1"]}}, "padding": {"s": "U0FNRQ=="}, "data_format": {"s": "TkhXQw=="}, "dilations": {"list": {"i": ["1", "1", "1", "1"]}}, "leakyrelu_alpha": {"f": 0.2}, "use_cudnn_on_gpu": {"b": true}, "fused_ops": {"list": {"s": ["Qmlhc0FkZA==", "UmVsdQ=="]}}, "epsilon": {"f": 0.0}, "T": {"type": "DT_FLOAT"}, "num_args": {"i": "1"}}}, {"name": "StatefulPartitionedCall/model/conv2d_48/Relu", "op": "_FusedConv2D", "input": ["StatefulPartitionedCall/model/conv2d_47/Relu", "StatefulPartitionedCall/model/conv2d_48/Conv2D/ReadVariableOp", "StatefulPartitionedCall/model/conv2d_48/BiasAdd/ReadVariableOp"], "device": "/device:CPU:0", "attr": {"num_args": {"i": "1"}, "explicit_paddings": {"list": {}}, "dilations": {"list": {"i": ["1", "1", "1", "1"]}}, "strides": {"list": {"i": ["1", "1", "1", "1"]}}, "data_format": {"s": "TkhXQw=="}, "epsilon": {"f": 0.0}, "use_cudnn_on_gpu": {"b": true}, "T": {"type": "DT_FLOAT"}, "leakyrelu_alpha": {"f": 0.2}, "fused_ops": {"list": {"s": ["Qmlhc0FkZA==", "UmVsdQ=="]}}, "padding": {"s": "U0FNRQ=="}}}, {"name": "StatefulPartitionedCall/model/concatenate_20/concat", "op": "ConcatV2", "input": ["StatefulPartitionedCall/model/conv2d_47/Relu", "StatefulPartitionedCall/model/conv2d_48/Relu", "StatefulPartitionedCall/model/concatenate_20/concat/axis"], "attr": {"Tidx": {"type": "DT_INT32"}, "T": {"type": "DT_FLOAT"}, "N": {"i": "2"}}}, {"name": "StatefulPartitionedCall/model/conv2d_49/Relu", "op": "_FusedConv2D", "input": ["StatefulPartitionedCall/model/concatenate_20/concat", "StatefulPartitionedCall/model/conv2d_49/Conv2D/ReadVariableOp", "StatefulPartitionedCall/model/conv2d_49/BiasAdd/ReadVariableOp"], "device": "/device:CPU:0", "attr": {"padding": {"s": "U0FNRQ=="}, "num_args": {"i": "1"}, "strides": {"list": {"i": ["1", "1", "1", "1"]}}, "use_cudnn_on_gpu": {"b": true}, "fused_ops": {"list": {"s": ["Qmlhc0FkZA==", "UmVsdQ=="]}}, "epsilon": {"f": 0.0}, "data_format": {"s": "TkhXQw=="}, "explicit_paddings": {"list": {}}, "T": {"type": "DT_FLOAT"}, "leakyrelu_alpha": {"f": 0.2}, "dilations": {"list": {"i": ["1", "1", "1", "1"]}}}}, {"name": "StatefulPartitionedCall/model/batch_normalization_29/FusedBatchNormV3/Mul", "op": "Mul", "input": ["StatefulPartitionedCall/model/conv2d_49/Relu", "StatefulPartitionedCall/model/batch_normalization_29/FusedBatchNormV3/Scaled"], "attr": {"T": {"type": "DT_FLOAT"}}}, {"name": "StatefulPartitionedCall/model/batch_normalization_29/FusedBatchNormV3", "op": "Add", "input": ["StatefulPartitionedCall/model/batch_normalization_29/FusedBatchNormV3/Mul", "StatefulPartitionedCall/model/batch_normalization_29/FusedBatchNormV3/Offset"], "attr": {"T": {"type": "DT_FLOAT"}}}, {"name": "StatefulPartitionedCall/model/concatenate_21/concat", "op": "ConcatV2", "input": ["StatefulPartitionedCall/model/conv2d_47/Relu", "StatefulPartitionedCall/model/conv2d_48/Relu", "StatefulPartitionedCall/model/batch_normalization_29/FusedBatchNormV3", "StatefulPartitionedCall/model/concatenate_21/concat/axis"], "attr": {"Tidx": {"type": "DT_INT32"}, "T": {"type": "DT_FLOAT"}, "N": {"i": "3"}}}, {"name": "StatefulPartitionedCall/model/conv2d_50/Relu", "op": "_FusedConv2D", "input": ["StatefulPartitionedCall/model/concatenate_21/concat", "StatefulPartitionedCall/model/conv2d_50/Conv2D/ReadVariableOp", "StatefulPartitionedCall/model/conv2d_50/BiasAdd/ReadVariableOp"], "device": "/device:CPU:0", "attr": {"strides": {"list": {"i": ["1", "1", "1", "1"]}}, "dilations": {"list": {"i": ["1", "1", "1", "1"]}}, "T": {"type": "DT_FLOAT"}, "explicit_paddings": {"list": {}}, "padding": {"s": "U0FNRQ=="}, "data_format": {"s": "TkhXQw=="}, "leakyrelu_alpha": {"f": 0.2}, "use_cudnn_on_gpu": {"b": true}, "epsilon": {"f": 0.0}, "fused_ops": {"list": {"s": ["Qmlhc0FkZA==", "UmVsdQ=="]}}, "num_args": {"i": "1"}}}, {"name": "StatefulPartitionedCall/model/batch_normalization_30/FusedBatchNormV3/Mul", "op": "Mul", "input": ["StatefulPartitionedCall/model/conv2d_50/Relu", "StatefulPartitionedCall/model/batch_normalization_30/FusedBatchNormV3/Scaled"], "attr": {"T": {"type": "DT_FLOAT"}}}, {"name": "StatefulPartitionedCall/model/batch_normalization_30/FusedBatchNormV3", "op": "Add", "input": ["StatefulPartitionedCall/model/batch_normalization_30/FusedBatchNormV3/Mul", "StatefulPartitionedCall/model/batch_normalization_30/FusedBatchNormV3/Offset"], "attr": {"T": {"type": "DT_FLOAT"}}}, {"name": "StatefulPartitionedCall/model/concatenate_22/concat", "op": "ConcatV2", "input": ["StatefulPartitionedCall/model/conv2d_47/Relu", "StatefulPartitionedCall/model/conv2d_48/Relu", "StatefulPartitionedCall/model/batch_normalization_29/FusedBatchNormV3", "StatefulPartitionedCall/model/batch_normalization_30/FusedBatchNormV3", "StatefulPartitionedCall/model/concatenate_22/concat/axis"], "attr": {"T": {"type": "DT_FLOAT"}, "N": {"i": "4"}, "Tidx": {"type": "DT_INT32"}}}, {"name": "StatefulPartitionedCall/model/conv2d_51/Relu", "op": "_FusedConv2D", "input": ["StatefulPartitionedCall/model/concatenate_22/concat", "StatefulPartitionedCall/model/conv2d_51/Conv2D/ReadVariableOp", "StatefulPartitionedCall/model/conv2d_51/BiasAdd/ReadVariableOp"], "device": "/device:CPU:0", "attr": {"padding": {"s": "U0FNRQ=="}, "strides": {"list": {"i": ["1", "1", "1", "1"]}}, "T": {"type": "DT_FLOAT"}, "fused_ops": {"list": {"s": ["Qmlhc0FkZA==", "UmVsdQ=="]}}, "epsilon": {"f": 0.0}, "leakyrelu_alpha": {"f": 0.2}, "explicit_paddings": {"list": {}}, "use_cudnn_on_gpu": {"b": true}, "num_args": {"i": "1"}, "dilations": {"list": {"i": ["1", "1", "1", "1"]}}, "data_format": {"s": "TkhXQw=="}}}, {"name": "StatefulPartitionedCall/model/concatenate_23/concat", "op": "ConcatV2", "input": ["input_6", "StatefulPartitionedCall/model/conv2d_43/Relu", "StatefulPartitionedCall/model/conv2d_47/Relu", "StatefulPartitionedCall/model/conv2d_51/Relu", "StatefulPartitionedCall/model/concatenate_23/concat/axis"], "attr": {"Tidx": {"type": "DT_INT32"}, "N": {"i": "4"}, "T": {"type": "DT_FLOAT"}}}, {"name": "StatefulPartitionedCall/model/conv2d_transpose_18/Shape", "op": "Shape", "input": ["StatefulPartitionedCall/model/concatenate_23/concat"], "attr": {"T": {"type": "DT_FLOAT"}, "out_type": {"type": "DT_INT32"}}}, {"name": "StatefulPartitionedCall/model/conv2d_transpose_18/strided_slice", "op": "StridedSlice", "input": ["StatefulPartitionedCall/model/conv2d_transpose_18/Shape", "StatefulPartitionedCall/model/conv2d_transpose_18/strided_slice/stack", "StatefulPartitionedCall/model/conv2d_transpose_18/strided_slice/stack_1", "StatefulPartitionedCall/model/conv2d_transpose_18/strided_slice/stack_2"], "attr": {"begin_mask": {"i": "0"}, "ellipsis_mask": {"i": "0"}, "new_axis_mask": {"i": "0"}, "T": {"type": "DT_INT32"}, "end_mask": {"i": "0"}, "shrink_axis_mask": {"i": "1"}, "Index": {"type": "DT_INT32"}}}, {"name": "StatefulPartitionedCall/model/conv2d_transpose_18/stack", "op": "Pack", "input": ["StatefulPartitionedCall/model/conv2d_transpose_18/strided_slice", "StatefulPartitionedCall/model/conv2d_transpose_18/stack/1", "StatefulPartitionedCall/model/conv2d_transpose_18/stack/2", "StatefulPartitionedCall/model/conv2d_transpose_18/stack/3"], "attr": {"axis": {"i": "0"}, "T": {"type": "DT_INT32"}, "N": {"i": "4"}}}, {"name": "StatefulPartitionedCall/model/conv2d_transpose_18/conv2d_transpose", "op": "Conv2DBackpropInput", "input": ["StatefulPartitionedCall/model/conv2d_transpose_18/stack", "StatefulPartitionedCall/model/conv2d_transpose_18/conv2d_transpose/ReadVariableOp", "StatefulPartitionedCall/model/concatenate_23/concat"], "attr": {"dilations": {"list": {"i": ["1", "1", "1", "1"]}}, "T": {"type": "DT_FLOAT"}, "use_cudnn_on_gpu": {"b": true}, "strides": {"list": {"i": ["1", "2", "2", "1"]}}, "padding": {"s": "U0FNRQ=="}, "explicit_paddings": {"list": {}}, "data_format": {"s": "TkhXQw=="}}}, {"name": "StatefulPartitionedCall/model/conv2d_transpose_18/BiasAdd", "op": "BiasAdd", "input": ["StatefulPartitionedCall/model/conv2d_transpose_18/conv2d_transpose", "StatefulPartitionedCall/model/conv2d_transpose_18/BiasAdd/ReadVariableOp"], "attr": {"T": {"type": "DT_FLOAT"}, "data_format": {"s": "TkhXQw=="}}}, {"name": "StatefulPartitionedCall/model/conv2d_transpose_18/Relu", "op": "Relu", "input": ["StatefulPartitionedCall/model/conv2d_transpose_18/BiasAdd"], "attr": {"T": {"type": "DT_FLOAT"}}}, {"name": "StatefulPartitionedCall/model/conv2d_transpose_19/Shape", "op": "Shape", "input": ["StatefulPartitionedCall/model/conv2d_transpose_18/Relu"], "attr": {"out_type": {"type": "DT_INT32"}, "T": {"type": "DT_FLOAT"}}}, {"name": "StatefulPartitionedCall/model/conv2d_transpose_19/strided_slice", "op": "StridedSlice", "input": ["StatefulPartitionedCall/model/conv2d_transpose_19/Shape", "StatefulPartitionedCall/model/conv2d_transpose_19/strided_slice/stack", "StatefulPartitionedCall/model/conv2d_transpose_19/strided_slice/stack_1", "StatefulPartitionedCall/model/conv2d_transpose_19/strided_slice/stack_2"], "attr": {"Index": {"type": "DT_INT32"}, "new_axis_mask": {"i": "0"}, "shrink_axis_mask": {"i": "1"}, "begin_mask": {"i": "0"}, "ellipsis_mask": {"i": "0"}, "T": {"type": "DT_INT32"}, "end_mask": {"i": "0"}}}, {"name": "StatefulPartitionedCall/model/conv2d_transpose_19/stack", "op": "Pack", "input": ["StatefulPartitionedCall/model/conv2d_transpose_19/strided_slice", "StatefulPartitionedCall/model/conv2d_transpose_19/stack/1", "StatefulPartitionedCall/model/conv2d_transpose_19/stack/2", "StatefulPartitionedCall/model/conv2d_transpose_19/stack/3"], "attr": {"T": {"type": "DT_INT32"}, "N": {"i": "4"}, "axis": {"i": "0"}}}, {"name": "StatefulPartitionedCall/model/conv2d_transpose_19/conv2d_transpose", "op": "Conv2DBackpropInput", "input": ["StatefulPartitionedCall/model/conv2d_transpose_19/stack", "StatefulPartitionedCall/model/conv2d_transpose_19/conv2d_transpose/ReadVariableOp", "StatefulPartitionedCall/model/conv2d_transpose_18/Relu"], "attr": {"strides": {"list": {"i": ["1", "1", "1", "1"]}}, "T": {"type": "DT_FLOAT"}, "data_format": {"s": "TkhXQw=="}, "padding": {"s": "U0FNRQ=="}, "dilations": {"list": {"i": ["1", "1", "1", "1"]}}, "use_cudnn_on_gpu": {"b": true}, "explicit_paddings": {"list": {}}}}, {"name": "StatefulPartitionedCall/model/conv2d_transpose_19/BiasAdd", "op": "BiasAdd", "input": ["StatefulPartitionedCall/model/conv2d_transpose_19/conv2d_transpose", "StatefulPartitionedCall/model/conv2d_transpose_19/BiasAdd/ReadVariableOp"], "attr": {"data_format": {"s": "TkhXQw=="}, "T": {"type": "DT_FLOAT"}}}, {"name": "StatefulPartitionedCall/model/conv2d_transpose_19/Relu", "op": "Relu", "input": ["StatefulPartitionedCall/model/conv2d_transpose_19/BiasAdd"], "attr": {"T": {"type": "DT_FLOAT"}}}, {"name": "StatefulPartitionedCall/model/conv2d_transpose_20/Shape", "op": "Shape", "input": ["StatefulPartitionedCall/model/conv2d_transpose_19/Relu"], "attr": {"out_type": {"type": "DT_INT32"}, "T": {"type": "DT_FLOAT"}}}, {"name": "StatefulPartitionedCall/model/conv2d_transpose_20/strided_slice", "op": "StridedSlice", "input": ["StatefulPartitionedCall/model/conv2d_transpose_20/Shape", "StatefulPartitionedCall/model/conv2d_transpose_20/strided_slice/stack", "StatefulPartitionedCall/model/conv2d_transpose_20/strided_slice/stack_1", "StatefulPartitionedCall/model/conv2d_transpose_20/strided_slice/stack_2"], "attr": {"end_mask": {"i": "0"}, "new_axis_mask": {"i": "0"}, "T": {"type": "DT_INT32"}, "shrink_axis_mask": {"i": "1"}, "begin_mask": {"i": "0"}, "Index": {"type": "DT_INT32"}, "ellipsis_mask": {"i": "0"}}}, {"name": "StatefulPartitionedCall/model/conv2d_transpose_20/stack", "op": "Pack", "input": ["StatefulPartitionedCall/model/conv2d_transpose_20/strided_slice", "StatefulPartitionedCall/model/conv2d_transpose_20/stack/1", "StatefulPartitionedCall/model/conv2d_transpose_20/stack/2", "StatefulPartitionedCall/model/conv2d_transpose_20/stack/3"], "attr": {"axis": {"i": "0"}, "N": {"i": "4"}, "T": {"type": "DT_INT32"}}}, {"name": "StatefulPartitionedCall/model/conv2d_transpose_20/conv2d_transpose", "op": "Conv2DBackpropInput", "input": ["StatefulPartitionedCall/model/conv2d_transpose_20/stack", "StatefulPartitionedCall/model/conv2d_transpose_20/conv2d_transpose/ReadVariableOp", "StatefulPartitionedCall/model/conv2d_transpose_19/Relu"], "attr": {"use_cudnn_on_gpu": {"b": true}, "data_format": {"s": "TkhXQw=="}, "strides": {"list": {"i": ["1", "2", "2", "1"]}}, "T": {"type": "DT_FLOAT"}, "dilations": {"list": {"i": ["1", "1", "1", "1"]}}, "explicit_paddings": {"list": {}}, "padding": {"s": "U0FNRQ=="}}}, {"name": "StatefulPartitionedCall/model/conv2d_transpose_20/BiasAdd", "op": "BiasAdd", "input": ["StatefulPartitionedCall/model/conv2d_transpose_20/conv2d_transpose", "StatefulPartitionedCall/model/conv2d_transpose_20/BiasAdd/ReadVariableOp"], "attr": {"data_format": {"s": "TkhXQw=="}, "T": {"type": "DT_FLOAT"}}}, {"name": "StatefulPartitionedCall/model/conv2d_transpose_20/Relu", "op": "Relu", "input": ["StatefulPartitionedCall/model/conv2d_transpose_20/BiasAdd"], "attr": {"T": {"type": "DT_FLOAT"}}}, {"name": "StatefulPartitionedCall/model/conv2d_transpose_21/Shape", "op": "Shape", "input": ["StatefulPartitionedCall/model/conv2d_transpose_20/Relu"], "attr": {"T": {"type": "DT_FLOAT"}, "out_type": {"type": "DT_INT32"}}}, {"name": "StatefulPartitionedCall/model/conv2d_transpose_21/strided_slice", "op": "StridedSlice", "input": ["StatefulPartitionedCall/model/conv2d_transpose_21/Shape", "StatefulPartitionedCall/model/conv2d_transpose_21/strided_slice/stack", "StatefulPartitionedCall/model/conv2d_transpose_21/strided_slice/stack_1", "StatefulPartitionedCall/model/conv2d_transpose_21/strided_slice/stack_2"], "attr": {"ellipsis_mask": {"i": "0"}, "new_axis_mask": {"i": "0"}, "begin_mask": {"i": "0"}, "shrink_axis_mask": {"i": "1"}, "Index": {"type": "DT_INT32"}, "T": {"type": "DT_INT32"}, "end_mask": {"i": "0"}}}, {"name": "StatefulPartitionedCall/model/conv2d_transpose_21/stack", "op": "Pack", "input": ["StatefulPartitionedCall/model/conv2d_transpose_21/strided_slice", "StatefulPartitionedCall/model/conv2d_transpose_21/stack/1", "StatefulPartitionedCall/model/conv2d_transpose_21/stack/2", "StatefulPartitionedCall/model/conv2d_transpose_21/stack/3"], "attr": {"axis": {"i": "0"}, "T": {"type": "DT_INT32"}, "N": {"i": "4"}}}, {"name": "StatefulPartitionedCall/model/conv2d_transpose_21/conv2d_transpose", "op": "Conv2DBackpropInput", "input": ["StatefulPartitionedCall/model/conv2d_transpose_21/stack", "StatefulPartitionedCall/model/conv2d_transpose_21/conv2d_transpose/ReadVariableOp", "StatefulPartitionedCall/model/conv2d_transpose_20/Relu"], "attr": {"explicit_paddings": {"list": {}}, "T": {"type": "DT_FLOAT"}, "padding": {"s": "U0FNRQ=="}, "use_cudnn_on_gpu": {"b": true}, "data_format": {"s": "TkhXQw=="}, "dilations": {"list": {"i": ["1", "1", "1", "1"]}}, "strides": {"list": {"i": ["1", "1", "1", "1"]}}}}, {"name": "StatefulPartitionedCall/model/conv2d_transpose_21/BiasAdd", "op": "BiasAdd", "input": ["StatefulPartitionedCall/model/conv2d_transpose_21/conv2d_transpose", "StatefulPartitionedCall/model/conv2d_transpose_21/BiasAdd/ReadVariableOp"], "attr": {"T": {"type": "DT_FLOAT"}, "data_format": {"s": "TkhXQw=="}}}, {"name": "StatefulPartitionedCall/model/conv2d_transpose_21/Relu", "op": "Relu", "input": ["StatefulPartitionedCall/model/conv2d_transpose_21/BiasAdd"], "attr": {"T": {"type": "DT_FLOAT"}}}, {"name": "StatefulPartitionedCall/model/conv2d_transpose_22/Shape", "op": "Shape", "input": ["StatefulPartitionedCall/model/conv2d_transpose_21/Relu"], "attr": {"out_type": {"type": "DT_INT32"}, "T": {"type": "DT_FLOAT"}}}, {"name": "StatefulPartitionedCall/model/conv2d_transpose_22/strided_slice", "op": "StridedSlice", "input": ["StatefulPartitionedCall/model/conv2d_transpose_22/Shape", "StatefulPartitionedCall/model/conv2d_transpose_22/strided_slice/stack", "StatefulPartitionedCall/model/conv2d_transpose_22/strided_slice/stack_1", "StatefulPartitionedCall/model/conv2d_transpose_22/strided_slice/stack_2"], "attr": {"shrink_axis_mask": {"i": "1"}, "ellipsis_mask": {"i": "0"}, "Index": {"type": "DT_INT32"}, "new_axis_mask": {"i": "0"}, "begin_mask": {"i": "0"}, "end_mask": {"i": "0"}, "T": {"type": "DT_INT32"}}}, {"name": "StatefulPartitionedCall/model/conv2d_transpose_22/stack", "op": "Pack", "input": ["StatefulPartitionedCall/model/conv2d_transpose_22/strided_slice", "StatefulPartitionedCall/model/conv2d_transpose_22/stack/1", "StatefulPartitionedCall/model/conv2d_transpose_22/stack/2", "StatefulPartitionedCall/model/conv2d_transpose_22/stack/3"], "attr": {"axis": {"i": "0"}, "T": {"type": "DT_INT32"}, "N": {"i": "4"}}}, {"name": "StatefulPartitionedCall/model/conv2d_transpose_22/conv2d_transpose", "op": "Conv2DBackpropInput", "input": ["StatefulPartitionedCall/model/conv2d_transpose_22/stack", "StatefulPartitionedCall/model/conv2d_transpose_22/conv2d_transpose/ReadVariableOp", "StatefulPartitionedCall/model/conv2d_transpose_21/Relu"], "attr": {"padding": {"s": "U0FNRQ=="}, "dilations": {"list": {"i": ["1", "1", "1", "1"]}}, "T": {"type": "DT_FLOAT"}, "strides": {"list": {"i": ["1", "1", "1", "1"]}}, "explicit_paddings": {"list": {}}, "data_format": {"s": "TkhXQw=="}, "use_cudnn_on_gpu": {"b": true}}}, {"name": "StatefulPartitionedCall/model/conv2d_transpose_22/BiasAdd", "op": "BiasAdd", "input": ["StatefulPartitionedCall/model/conv2d_transpose_22/conv2d_transpose", "StatefulPartitionedCall/model/conv2d_transpose_22/BiasAdd/ReadVariableOp"], "attr": {"data_format": {"s": "TkhXQw=="}, "T": {"type": "DT_FLOAT"}}}, {"name": "StatefulPartitionedCall/model/conv2d_transpose_22/Relu", "op": "Relu", "input": ["StatefulPartitionedCall/model/conv2d_transpose_22/BiasAdd"], "attr": {"T": {"type": "DT_FLOAT"}}}, {"name": "StatefulPartitionedCall/model/conv2d_transpose_23/Shape", "op": "Shape", "input": ["StatefulPartitionedCall/model/conv2d_transpose_22/Relu"], "attr": {"T": {"type": "DT_FLOAT"}, "out_type": {"type": "DT_INT32"}}}, {"name": "StatefulPartitionedCall/model/conv2d_transpose_23/strided_slice", "op": "StridedSlice", "input": ["StatefulPartitionedCall/model/conv2d_transpose_23/Shape", "StatefulPartitionedCall/model/conv2d_transpose_23/strided_slice/stack", "StatefulPartitionedCall/model/conv2d_transpose_23/strided_slice/stack_1", "StatefulPartitionedCall/model/conv2d_transpose_23/strided_slice/stack_2"], "attr": {"end_mask": {"i": "0"}, "shrink_axis_mask": {"i": "1"}, "Index": {"type": "DT_INT32"}, "T": {"type": "DT_INT32"}, "begin_mask": {"i": "0"}, "ellipsis_mask": {"i": "0"}, "new_axis_mask": {"i": "0"}}}, {"name": "StatefulPartitionedCall/model/conv2d_transpose_23/stack", "op": "Pack", "input": ["StatefulPartitionedCall/model/conv2d_transpose_23/strided_slice", "StatefulPartitionedCall/model/conv2d_transpose_23/stack/1", "StatefulPartitionedCall/model/conv2d_transpose_23/stack/2", "StatefulPartitionedCall/model/conv2d_transpose_23/stack/3"], "attr": {"N": {"i": "4"}, "T": {"type": "DT_INT32"}, "axis": {"i": "0"}}}, {"name": "StatefulPartitionedCall/model/conv2d_transpose_23/conv2d_transpose", "op": "Conv2DBackpropInput", "input": ["StatefulPartitionedCall/model/conv2d_transpose_23/stack", "StatefulPartitionedCall/model/conv2d_transpose_23/conv2d_transpose/ReadVariableOp", "StatefulPartitionedCall/model/conv2d_transpose_22/Relu"], "attr": {"explicit_paddings": {"list": {}}, "use_cudnn_on_gpu": {"b": true}, "padding": {"s": "U0FNRQ=="}, "strides": {"list": {"i": ["1", "1", "1", "1"]}}, "data_format": {"s": "TkhXQw=="}, "dilations": {"list": {"i": ["1", "1", "1", "1"]}}, "T": {"type": "DT_FLOAT"}}}, {"name": "StatefulPartitionedCall/model/conv2d_transpose_23/BiasAdd", "op": "BiasAdd", "input": ["StatefulPartitionedCall/model/conv2d_transpose_23/conv2d_transpose", "StatefulPartitionedCall/model/conv2d_transpose_23/BiasAdd/ReadVariableOp"], "attr": {"data_format": {"s": "TkhXQw=="}, "T": {"type": "DT_FLOAT"}}}, {"name": "StatefulPartitionedCall/model/conv2d_transpose_23/Sigmoid", "op": "Sigmoid", "input": ["StatefulPartitionedCall/model/conv2d_transpose_23/BiasAdd"], "attr": {"T": {"type": "DT_FLOAT"}}}, {"name": "Identity", "op": "Identity", "input": ["StatefulPartitionedCall/model/conv2d_transpose_23/Sigmoid"], "attr": {"T": {"type": "DT_FLOAT"}}}], "library": {}, "versions": {"producer": 1205}}, "weightsManifest": [{"paths": ["group1-shard1of1.bin"], "weights": [{"name": "StatefulPartitionedCall/model/conv2d_transpose_23/strided_slice/stack", "shape": [1], "dtype": "int32"}, {"name": "StatefulPartitionedCall/model/conv2d_transpose_23/strided_slice/stack_1", "shape": [1], "dtype": "int32"}, {"name": "StatefulPartitionedCall/model/conv2d_transpose_23/strided_slice/stack_2", "shape": [1], "dtype": "int32"}, {"name": "StatefulPartitionedCall/model/conv2d_transpose_23/stack/1", "shape": [], "dtype": "int32"}, {"name": "StatefulPartitionedCall/model/conv2d_transpose_23/stack/2", "shape": [], "dtype": "int32"}, {"name": "StatefulPartitionedCall/model/conv2d_transpose_23/stack/3", "shape": [], "dtype": "int32"}, {"name": "StatefulPartitionedCall/model/conv2d_transpose_23/conv2d_transpose/ReadVariableOp", "shape": [3, 3, 1, 4], "dtype": "float32"}, {"name": "StatefulPartitionedCall/model/conv2d_transpose_22/strided_slice/stack", "shape": [1], "dtype": "int32"}, {"name": "StatefulPartitionedCall/model/conv2d_transpose_22/strided_slice/stack_1", "shape": [1], "dtype": "int32"}, {"name": "StatefulPartitionedCall/model/conv2d_transpose_22/strided_slice/stack_2", "shape": [1], "dtype": "int32"}, {"name": "StatefulPartitionedCall/model/conv2d_transpose_22/stack/1", "shape": [], "dtype": "int32"}, {"name": "StatefulPartitionedCall/model/conv2d_transpose_22/stack/2", "shape": [], "dtype": "int32"}, {"name": "StatefulPartitionedCall/model/conv2d_transpose_22/stack/3", "shape": [], "dtype": "int32"}, {"name": "StatefulPartitionedCall/model/conv2d_transpose_22/conv2d_transpose/ReadVariableOp", "shape": [3, 3, 4, 16], "dtype": "float32"}, {"name": "StatefulPartitionedCall/model/conv2d_transpose_21/strided_slice/stack", "shape": [1], "dtype": "int32"}, {"name": "StatefulPartitionedCall/model/conv2d_transpose_21/strided_slice/stack_1", "shape": [1], "dtype": "int32"}, {"name": "StatefulPartitionedCall/model/conv2d_transpose_21/strided_slice/stack_2", "shape": [1], "dtype": "int32"}, {"name": "StatefulPartitionedCall/model/conv2d_transpose_21/stack/1", "shape": [], "dtype": "int32"}, {"name": "StatefulPartitionedCall/model/conv2d_transpose_21/stack/2", "shape": [], "dtype": "int32"}, {"name": "StatefulPartitionedCall/model/conv2d_transpose_21/stack/3", "shape": [], "dtype": "int32"}, {"name": "StatefulPartitionedCall/model/conv2d_transpose_21/conv2d_transpose/ReadVariableOp", "shape": [3, 3, 16, 16], "dtype": "float32"}, {"name": "StatefulPartitionedCall/model/conv2d_transpose_20/strided_slice/stack", "shape": [1], "dtype": "int32"}, {"name": "StatefulPartitionedCall/model/conv2d_transpose_20/strided_slice/stack_1", "shape": [1], "dtype": "int32"}, {"name": "StatefulPartitionedCall/model/conv2d_transpose_20/strided_slice/stack_2", "shape": [1], "dtype": "int32"}, {"name": "StatefulPartitionedCall/model/conv2d_transpose_20/stack/1", "shape": [], "dtype": "int32"}, {"name": "StatefulPartitionedCall/model/conv2d_transpose_20/stack/2", "shape": [], "dtype": "int32"}, {"name": "StatefulPartitionedCall/model/conv2d_transpose_20/stack/3", "shape": [], "dtype": "int32"}, {"name": "StatefulPartitionedCall/model/conv2d_transpose_20/conv2d_transpose/ReadVariableOp", "shape": [3, 3, 16, 64], "dtype": "float32"}, {"name": "StatefulPartitionedCall/model/conv2d_transpose_19/strided_slice/stack", "shape": [1], "dtype": "int32"}, {"name": "StatefulPartitionedCall/model/conv2d_transpose_19/strided_slice/stack_1", "shape": [1], "dtype": "int32"}, {"name": "StatefulPartitionedCall/model/conv2d_transpose_19/strided_slice/stack_2", "shape": [1], "dtype": "int32"}, {"name": "StatefulPartitionedCall/model/conv2d_transpose_19/stack/1", "shape": [], "dtype": "int32"}, {"name": "StatefulPartitionedCall/model/conv2d_transpose_19/stack/2", "shape": [], "dtype": "int32"}, {"name": "StatefulPartitionedCall/model/conv2d_transpose_19/stack/3", "shape": [], "dtype": "int32"}, {"name": "StatefulPartitionedCall/model/conv2d_transpose_19/conv2d_transpose/ReadVariableOp", "shape": [3, 3, 64, 64], "dtype": "float32"}, {"name": "StatefulPartitionedCall/model/conv2d_transpose_18/strided_slice/stack", "shape": [1], "dtype": "int32"}, {"name": "StatefulPartitionedCall/model/conv2d_transpose_18/strided_slice/stack_1", "shape": [1], "dtype": "int32"}, {"name": "StatefulPartitionedCall/model/conv2d_transpose_18/strided_slice/stack_2", "shape": [1], "dtype": "int32"}, {"name": "StatefulPartitionedCall/model/conv2d_transpose_18/stack/1", "shape": [], "dtype": "int32"}, {"name": "StatefulPartitionedCall/model/conv2d_transpose_18/stack/2", "shape": [], "dtype": "int32"}, {"name": "StatefulPartitionedCall/model/conv2d_transpose_18/stack/3", "shape": [], "dtype": "int32"}, {"name": "StatefulPartitionedCall/model/conv2d_transpose_18/conv2d_transpose/ReadVariableOp", "shape": [3, 3, 64, 97], "dtype": "float32"}, {"name": "StatefulPartitionedCall/model/conv2d_40/Conv2D/ReadVariableOp", "shape": [3, 3, 1, 32], "dtype": "float32"}, {"name": "StatefulPartitionedCall/model/conv2d_40/BiasAdd/ReadVariableOp", "shape": [32], "dtype": "float32"}, {"name": "StatefulPartitionedCall/model/concatenate_14/concat/axis", "shape": [], "dtype": "int32"}, {"name": "StatefulPartitionedCall/model/conv2d_41/Conv2D/ReadVariableOp", "shape": [3, 3, 33, 32], "dtype": "float32"}, {"name": "StatefulPartitionedCall/model/conv2d_41/BiasAdd/ReadVariableOp", "shape": [32], "dtype": "float32"}, {"name": "StatefulPartitionedCall/model/concatenate_15/concat/axis", "shape": [], "dtype": "int32"}, {"name": "StatefulPartitionedCall/model/conv2d_42/Conv2D/ReadVariableOp", "shape": [3, 3, 65, 32], "dtype": "float32"}, {"name": "StatefulPartitionedCall/model/conv2d_42/BiasAdd/ReadVariableOp", "shape": [32], "dtype": "float32"}, {"name": "StatefulPartitionedCall/model/concatenate_16/concat/axis", "shape": [], "dtype": "int32"}, {"name": "StatefulPartitionedCall/model/conv2d_43/Conv2D/ReadVariableOp", "shape": [3, 3, 97, 32], "dtype": "float32"}, {"name": "StatefulPartitionedCall/model/conv2d_43/BiasAdd/ReadVariableOp", "shape": [32], "dtype": "float32"}, {"name": "StatefulPartitionedCall/model/conv2d_44/Conv2D/ReadVariableOp", "shape": [3, 3, 32, 32], "dtype": "float32"}, {"name": "StatefulPartitionedCall/model/conv2d_44/BiasAdd/ReadVariableOp", "shape": [32], "dtype": "float32"}, {"name": "StatefulPartitionedCall/model/concatenate_17/concat/axis", "shape": [], "dtype": "int32"}, {"name": "StatefulPartitionedCall/model/conv2d_45/Conv2D/ReadVariableOp", "shape": [3, 3, 64, 32], "dtype": "float32"}, {"name": "StatefulPartitionedCall/model/conv2d_45/BiasAdd/ReadVariableOp", "shape": [32], "dtype": "float32"}, {"name": "StatefulPartitionedCall/model/concatenate_18/concat/axis", "shape": [], "dtype": "int32"}, {"name": "StatefulPartitionedCall/model/conv2d_46/Conv2D/ReadVariableOp", "shape": [3, 3, 96, 32], "dtype": "float32"}, {"name": "StatefulPartitionedCall/model/conv2d_46/BiasAdd/ReadVariableOp", "shape": [32], "dtype": "float32"}, {"name": "StatefulPartitionedCall/model/concatenate_19/concat/axis", "shape": [], "dtype": "int32"}, {"name": "StatefulPartitionedCall/model/conv2d_47/Conv2D/ReadVariableOp", "shape": [3, 3, 128, 32], "dtype": "float32"}, {"name": "StatefulPartitionedCall/model/conv2d_47/BiasAdd/ReadVariableOp", "shape": [32], "dtype": "float32"}, {"name": "StatefulPartitionedCall/model/conv2d_48/Conv2D/ReadVariableOp", "shape": [3, 3, 32, 32], "dtype": "float32"}, {"name": "StatefulPartitionedCall/model/conv2d_48/BiasAdd/ReadVariableOp", "shape": [32], "dtype": "float32"}, {"name": "StatefulPartitionedCall/model/concatenate_20/concat/axis", "shape": [], "dtype": "int32"}, {"name": "StatefulPartitionedCall/model/conv2d_49/Conv2D/ReadVariableOp", "shape": [3, 3, 64, 32], "dtype": "float32"}, {"name": "StatefulPartitionedCall/model/conv2d_49/BiasAdd/ReadVariableOp", "shape": [32], "dtype": "float32"}, {"name": "StatefulPartitionedCall/model/concatenate_21/concat/axis", "shape": [], "dtype": "int32"}, {"name": "StatefulPartitionedCall/model/conv2d_50/Conv2D/ReadVariableOp", "shape": [3, 3, 96, 32], "dtype": "float32"}, {"name": "StatefulPartitionedCall/model/conv2d_50/BiasAdd/ReadVariableOp", "shape": [32], "dtype": "float32"}, {"name": "StatefulPartitionedCall/model/concatenate_22/concat/axis", "shape": [], "dtype": "int32"}, {"name": "StatefulPartitionedCall/model/conv2d_51/Conv2D/ReadVariableOp", "shape": [3, 3, 128, 32], "dtype": "float32"}, {"name": "StatefulPartitionedCall/model/conv2d_51/BiasAdd/ReadVariableOp", "shape": [32], "dtype": "float32"}, {"name": "StatefulPartitionedCall/model/concatenate_23/concat/axis", "shape": [], "dtype": "int32"}, {"name": "StatefulPartitionedCall/model/conv2d_transpose_18/BiasAdd/ReadVariableOp", "shape": [64], "dtype": "float32"}, {"name": "StatefulPartitionedCall/model/conv2d_transpose_19/BiasAdd/ReadVariableOp", "shape": [64], "dtype": "float32"}, {"name": "StatefulPartitionedCall/model/conv2d_transpose_20/BiasAdd/ReadVariableOp", "shape": [16], "dtype": "float32"}, {"name": "StatefulPartitionedCall/model/conv2d_transpose_21/BiasAdd/ReadVariableOp", "shape": [16], "dtype": "float32"}, {"name": "StatefulPartitionedCall/model/conv2d_transpose_22/BiasAdd/ReadVariableOp", "shape": [4], "dtype": "float32"}, {"name": "StatefulPartitionedCall/model/conv2d_transpose_23/BiasAdd/ReadVariableOp", "shape": [1], "dtype": "float32"}, {"name": "StatefulPartitionedCall/model/batch_normalization_28/FusedBatchNormV3/Offset", "shape": [32], "dtype": "float32"}, {"name": "StatefulPartitionedCall/model/batch_normalization_27/FusedBatchNormV3/Scaled", "shape": [32], "dtype": "float32"}, {"name": "StatefulPartitionedCall/model/batch_normalization_27/FusedBatchNormV3/Offset", "shape": [32], "dtype": "float32"}, {"name": "StatefulPartitionedCall/model/batch_normalization_26/FusedBatchNormV3/Scaled", "shape": [32], "dtype": "float32"}, {"name": "StatefulPartitionedCall/model/batch_normalization_26/FusedBatchNormV3/Offset", "shape": [32], "dtype": "float32"}, {"name": "StatefulPartitionedCall/model/batch_normalization_25/FusedBatchNormV3/Scaled", "shape": [32], "dtype": "float32"}, {"name": "StatefulPartitionedCall/model/batch_normalization_25/FusedBatchNormV3/Offset", "shape": [32], "dtype": "float32"}, {"name": "StatefulPartitionedCall/model/batch_normalization_30/FusedBatchNormV3/Scaled", "shape": [32], "dtype": "float32"}, {"name": "StatefulPartitionedCall/model/batch_normalization_30/FusedBatchNormV3/Offset", "shape": [32], "dtype": "float32"}, {"name": "StatefulPartitionedCall/model/batch_normalization_29/FusedBatchNormV3/Scaled", "shape": [32], "dtype": "float32"}, {"name": "StatefulPartitionedCall/model/batch_normalization_29/FusedBatchNormV3/Offset", "shape": [32], "dtype": "float32"}, {"name": "StatefulPartitionedCall/model/batch_normalization_28/FusedBatchNormV3/Scaled", "shape": [32], "dtype": "float32"}]}]}