{"format": "graph-model", "generatedBy": "2.8.2", "convertedBy": "TensorFlow.js Converter v3.20.0", "signature": {"inputs": {"input_3": {"name": "input_3:0", "dtype": "DT_FLOAT", "tensorShape": {"dim": [{"size": "-1"}, {"size": "64"}, {"size": "64"}, {"size": "1"}]}}, "input_4": {"name": "input_4:0", "dtype": "DT_FLOAT", "tensorShape": {"dim": [{"size": "-1"}, {"size": "1024"}]}}}, "outputs": {"conv2d_transpose_17": {"name": "Identity:0", "dtype": "DT_FLOAT", "tensorShape": {"dim": [{"size": "-1"}, {"size": "64"}, {"size": "64"}, {"size": "1"}]}}}}, "modelTopology": {"node": [{"name": "StatefulPartitionedCall/generator/conv2d_transpose_17/strided_slice/stack", "op": "Const", "attr": {"value": {"tensor": {"dtype": "DT_INT32", "tensorShape": {"dim": [{"size": "1"}]}}}, "dtype": {"type": "DT_INT32"}}}, {"name": "StatefulPartitionedCall/generator/conv2d_transpose_17/strided_slice/stack_1", "op": "Const", "attr": {"dtype": {"type": "DT_INT32"}, "value": {"tensor": {"dtype": "DT_INT32", "tensorShape": {"dim": [{"size": "1"}]}}}}}, {"name": "StatefulPartitionedCall/generator/conv2d_transpose_17/strided_slice/stack_2", "op": "Const", "attr": {"dtype": {"type": "DT_INT32"}, "value": {"tensor": {"dtype": "DT_INT32", "tensorShape": {"dim": [{"size": "1"}]}}}}}, {"name": "StatefulPartitionedCall/generator/conv2d_transpose_17/stack/1", "op": "Const", "attr": {"dtype": {"type": "DT_INT32"}, "value": {"tensor": {"dtype": "DT_INT32", "tensorShape": {}}}}}, {"name": "StatefulPartitionedCall/generator/conv2d_transpose_17/stack/2", "op": "Const", "attr": {"dtype": {"type": "DT_INT32"}, "value": {"tensor": {"dtype": "DT_INT32", "tensorShape": {}}}}}, {"name": "StatefulPartitionedCall/generator/conv2d_transpose_17/stack/3", "op": "Const", "attr": {"dtype": {"type": "DT_INT32"}, "value": {"tensor": {"dtype": "DT_INT32", "tensorShape": {}}}}}, {"name": "StatefulPartitionedCall/generator/conv2d_transpose_17/conv2d_transpose/ReadVariableOp", "op": "Const", "attr": {"value": {"tensor": {"dtype": "DT_FLOAT", "tensorShape": {"dim": [{"size": "3"}, {"size": "3"}, {"size": "1"}, {"size": "9"}]}}}, "dtype": {"type": "DT_FLOAT"}}}, {"name": "StatefulPartitionedCall/generator/conv2d_transpose_16/strided_slice/stack", "op": "Const", "attr": {"dtype": {"type": "DT_INT32"}, "value": {"tensor": {"dtype": "DT_INT32", "tensorShape": {"dim": [{"size": "1"}]}}}}}, {"name": "StatefulPartitionedCall/generator/conv2d_transpose_16/strided_slice/stack_1", "op": "Const", "attr": {"dtype": {"type": "DT_INT32"}, "value": {"tensor": {"dtype": "DT_INT32", "tensorShape": {"dim": [{"size": "1"}]}}}}}, {"name": "StatefulPartitionedCall/generator/conv2d_transpose_16/strided_slice/stack_2", "op": "Const", "attr": {"value": {"tensor": {"dtype": "DT_INT32", "tensorShape": {"dim": [{"size": "1"}]}}}, "dtype": {"type": "DT_INT32"}}}, {"name": "StatefulPartitionedCall/generator/conv2d_transpose_16/stack/1", "op": "Const", "attr": {"value": {"tensor": {"dtype": "DT_INT32", "tensorShape": {}}}, "dtype": {"type": "DT_INT32"}}}, {"name": "StatefulPartitionedCall/generator/conv2d_transpose_16/stack/2", "op": "Const", "attr": {"value": {"tensor": {"dtype": "DT_INT32", "tensorShape": {}}}, "dtype": {"type": "DT_INT32"}}}, {"name": "StatefulPartitionedCall/generator/conv2d_transpose_16/stack/3", "op": "Const", "attr": {"value": {"tensor": {"dtype": "DT_INT32", "tensorShape": {}}}, "dtype": {"type": "DT_INT32"}}}, {"name": "StatefulPartitionedCall/generator/conv2d_transpose_16/conv2d_transpose/ReadVariableOp", "op": "Const", "attr": {"value": {"tensor": {"dtype": "DT_FLOAT", "tensorShape": {"dim": [{"size": "3"}, {"size": "3"}, {"size": "8"}, {"size": "8"}]}}}, "dtype": {"type": "DT_FLOAT"}}}, {"name": "StatefulPartitionedCall/generator/conv2d_transpose_15/strided_slice/stack", "op": "Const", "attr": {"value": {"tensor": {"dtype": "DT_INT32", "tensorShape": {"dim": [{"size": "1"}]}}}, "dtype": {"type": "DT_INT32"}}}, {"name": "StatefulPartitionedCall/generator/conv2d_transpose_15/strided_slice/stack_1", "op": "Const", "attr": {"dtype": {"type": "DT_INT32"}, "value": {"tensor": {"dtype": "DT_INT32", "tensorShape": {"dim": [{"size": "1"}]}}}}}, {"name": "StatefulPartitionedCall/generator/conv2d_transpose_15/strided_slice/stack_2", "op": "Const", "attr": {"value": {"tensor": {"dtype": "DT_INT32", "tensorShape": {"dim": [{"size": "1"}]}}}, "dtype": {"type": "DT_INT32"}}}, {"name": "StatefulPartitionedCall/generator/conv2d_transpose_15/stack/1", "op": "Const", "attr": {"value": {"tensor": {"dtype": "DT_INT32", "tensorShape": {}}}, "dtype": {"type": "DT_INT32"}}}, {"name": "StatefulPartitionedCall/generator/conv2d_transpose_15/stack/2", "op": "Const", "attr": {"value": {"tensor": {"dtype": "DT_INT32", "tensorShape": {}}}, "dtype": {"type": "DT_INT32"}}}, {"name": "StatefulPartitionedCall/generator/conv2d_transpose_15/stack/3", "op": "Const", "attr": {"dtype": {"type": "DT_INT32"}, "value": {"tensor": {"dtype": "DT_INT32", "tensorShape": {}}}}}, {"name": "StatefulPartitionedCall/generator/conv2d_transpose_15/conv2d_transpose/ReadVariableOp", "op": "Const", "attr": {"dtype": {"type": "DT_FLOAT"}, "value": {"tensor": {"dtype": "DT_FLOAT", "tensorShape": {"dim": [{"size": "3"}, {"size": "3"}, {"size": "8"}, {"size": "24"}]}}}}}, {"name": "StatefulPartitionedCall/generator/conv2d_transpose_14/strided_slice/stack", "op": "Const", "attr": {"dtype": {"type": "DT_INT32"}, "value": {"tensor": {"dtype": "DT_INT32", "tensorShape": {"dim": [{"size": "1"}]}}}}}, {"name": "StatefulPartitionedCall/generator/conv2d_transpose_14/strided_slice/stack_1", "op": "Const", "attr": {"dtype": {"type": "DT_INT32"}, "value": {"tensor": {"dtype": "DT_INT32", "tensorShape": {"dim": [{"size": "1"}]}}}}}, {"name": "StatefulPartitionedCall/generator/conv2d_transpose_14/strided_slice/stack_2", "op": "Const", "attr": {"dtype": {"type": "DT_INT32"}, "value": {"tensor": {"dtype": "DT_INT32", "tensorShape": {"dim": [{"size": "1"}]}}}}}, {"name": "StatefulPartitionedCall/generator/conv2d_transpose_14/stack/1", "op": "Const", "attr": {"value": {"tensor": {"dtype": "DT_INT32", "tensorShape": {}}}, "dtype": {"type": "DT_INT32"}}}, {"name": "StatefulPartitionedCall/generator/conv2d_transpose_14/stack/2", "op": "Const", "attr": {"value": {"tensor": {"dtype": "DT_INT32", "tensorShape": {}}}, "dtype": {"type": "DT_INT32"}}}, {"name": "StatefulPartitionedCall/generator/conv2d_transpose_14/stack/3", "op": "Const", "attr": {"dtype": {"type": "DT_INT32"}, "value": {"tensor": {"dtype": "DT_INT32", "tensorShape": {}}}}}, {"name": "StatefulPartitionedCall/generator/conv2d_transpose_14/conv2d_transpose/ReadVariableOp", "op": "Const", "attr": {"value": {"tensor": {"dtype": "DT_FLOAT", "tensorShape": {"dim": [{"size": "3"}, {"size": "3"}, {"size": "16"}, {"size": "16"}]}}}, "dtype": {"type": "DT_FLOAT"}}}, {"name": "StatefulPartitionedCall/generator/conv2d_transpose_13/strided_slice/stack", "op": "Const", "attr": {"value": {"tensor": {"dtype": "DT_INT32", "tensorShape": {"dim": [{"size": "1"}]}}}, "dtype": {"type": "DT_INT32"}}}, {"name": "StatefulPartitionedCall/generator/conv2d_transpose_13/strided_slice/stack_1", "op": "Const", "attr": {"dtype": {"type": "DT_INT32"}, "value": {"tensor": {"dtype": "DT_INT32", "tensorShape": {"dim": [{"size": "1"}]}}}}}, {"name": "StatefulPartitionedCall/generator/conv2d_transpose_13/strided_slice/stack_2", "op": "Const", "attr": {"dtype": {"type": "DT_INT32"}, "value": {"tensor": {"dtype": "DT_INT32", "tensorShape": {"dim": [{"size": "1"}]}}}}}, {"name": "StatefulPartitionedCall/generator/conv2d_transpose_13/stack/1", "op": "Const", "attr": {"dtype": {"type": "DT_INT32"}, "value": {"tensor": {"dtype": "DT_INT32", "tensorShape": {}}}}}, {"name": "StatefulPartitionedCall/generator/conv2d_transpose_13/stack/2", "op": "Const", "attr": {"dtype": {"type": "DT_INT32"}, "value": {"tensor": {"dtype": "DT_INT32", "tensorShape": {}}}}}, {"name": "StatefulPartitionedCall/generator/conv2d_transpose_13/stack/3", "op": "Const", "attr": {"value": {"tensor": {"dtype": "DT_INT32", "tensorShape": {}}}, "dtype": {"type": "DT_INT32"}}}, {"name": "StatefulPartitionedCall/generator/conv2d_transpose_13/conv2d_transpose/ReadVariableOp", "op": "Const", "attr": {"value": {"tensor": {"dtype": "DT_FLOAT", "tensorShape": {"dim": [{"size": "3"}, {"size": "3"}, {"size": "16"}, {"size": "48"}]}}}, "dtype": {"type": "DT_FLOAT"}}}, {"name": "StatefulPartitionedCall/generator/conv2d_transpose_12/strided_slice/stack", "op": "Const", "attr": {"value": {"tensor": {"dtype": "DT_INT32", "tensorShape": {"dim": [{"size": "1"}]}}}, "dtype": {"type": "DT_INT32"}}}, {"name": "StatefulPartitionedCall/generator/conv2d_transpose_12/strided_slice/stack_1", "op": "Const", "attr": {"value": {"tensor": {"dtype": "DT_INT32", "tensorShape": {"dim": [{"size": "1"}]}}}, "dtype": {"type": "DT_INT32"}}}, {"name": "StatefulPartitionedCall/generator/conv2d_transpose_12/strided_slice/stack_2", "op": "Const", "attr": {"value": {"tensor": {"dtype": "DT_INT32", "tensorShape": {"dim": [{"size": "1"}]}}}, "dtype": {"type": "DT_INT32"}}}, {"name": "StatefulPartitionedCall/generator/conv2d_transpose_12/stack/1", "op": "Const", "attr": {"value": {"tensor": {"dtype": "DT_INT32", "tensorShape": {}}}, "dtype": {"type": "DT_INT32"}}}, {"name": "StatefulPartitionedCall/generator/conv2d_transpose_12/stack/2", "op": "Const", "attr": {"value": {"tensor": {"dtype": "DT_INT32", "tensorShape": {}}}, "dtype": {"type": "DT_INT32"}}}, {"name": "StatefulPartitionedCall/generator/conv2d_transpose_12/stack/3", "op": "Const", "attr": {"value": {"tensor": {"dtype": "DT_INT32", "tensorShape": {}}}, "dtype": {"type": "DT_INT32"}}}, {"name": "StatefulPartitionedCall/generator/conv2d_transpose_12/conv2d_transpose/ReadVariableOp", "op": "Const", "attr": {"dtype": {"type": "DT_FLOAT"}, "value": {"tensor": {"dtype": "DT_FLOAT", "tensorShape": {"dim": [{"size": "3"}, {"size": "3"}, {"size": "32"}, {"size": "32"}]}}}}}, {"name": "StatefulPartitionedCall/generator/conv2d_transpose_11/strided_slice/stack", "op": "Const", "attr": {"dtype": {"type": "DT_INT32"}, "value": {"tensor": {"dtype": "DT_INT32", "tensorShape": {"dim": [{"size": "1"}]}}}}}, {"name": "StatefulPartitionedCall/generator/conv2d_transpose_11/strided_slice/stack_1", "op": "Const", "attr": {"value": {"tensor": {"dtype": "DT_INT32", "tensorShape": {"dim": [{"size": "1"}]}}}, "dtype": {"type": "DT_INT32"}}}, {"name": "StatefulPartitionedCall/generator/conv2d_transpose_11/strided_slice/stack_2", "op": "Const", "attr": {"dtype": {"type": "DT_INT32"}, "value": {"tensor": {"dtype": "DT_INT32", "tensorShape": {"dim": [{"size": "1"}]}}}}}, {"name": "StatefulPartitionedCall/generator/conv2d_transpose_11/stack/1", "op": "Const", "attr": {"dtype": {"type": "DT_INT32"}, "value": {"tensor": {"dtype": "DT_INT32", "tensorShape": {}}}}}, {"name": "StatefulPartitionedCall/generator/conv2d_transpose_11/stack/2", "op": "Const", "attr": {"value": {"tensor": {"dtype": "DT_INT32", "tensorShape": {}}}, "dtype": {"type": "DT_INT32"}}}, {"name": "StatefulPartitionedCall/generator/conv2d_transpose_11/stack/3", "op": "Const", "attr": {"value": {"tensor": {"dtype": "DT_INT32", "tensorShape": {}}}, "dtype": {"type": "DT_INT32"}}}, {"name": "StatefulPartitionedCall/generator/conv2d_transpose_11/conv2d_transpose/ReadVariableOp", "op": "Const", "attr": {"dtype": {"type": "DT_FLOAT"}, "value": {"tensor": {"dtype": "DT_FLOAT", "tensorShape": {"dim": [{"size": "3"}, {"size": "3"}, {"size": "32"}, {"size": "96"}]}}}}}, {"name": "StatefulPartitionedCall/generator/conv2d_transpose_10/strided_slice/stack", "op": "Const", "attr": {"dtype": {"type": "DT_INT32"}, "value": {"tensor": {"dtype": "DT_INT32", "tensorShape": {"dim": [{"size": "1"}]}}}}}, {"name": "StatefulPartitionedCall/generator/conv2d_transpose_10/strided_slice/stack_1", "op": "Const", "attr": {"value": {"tensor": {"dtype": "DT_INT32", "tensorShape": {"dim": [{"size": "1"}]}}}, "dtype": {"type": "DT_INT32"}}}, {"name": "StatefulPartitionedCall/generator/conv2d_transpose_10/strided_slice/stack_2", "op": "Const", "attr": {"dtype": {"type": "DT_INT32"}, "value": {"tensor": {"dtype": "DT_INT32", "tensorShape": {"dim": [{"size": "1"}]}}}}}, {"name": "StatefulPartitionedCall/generator/conv2d_transpose_10/stack/1", "op": "Const", "attr": {"dtype": {"type": "DT_INT32"}, "value": {"tensor": {"dtype": "DT_INT32", "tensorShape": {}}}}}, {"name": "StatefulPartitionedCall/generator/conv2d_transpose_10/stack/2", "op": "Const", "attr": {"dtype": {"type": "DT_INT32"}, "value": {"tensor": {"dtype": "DT_INT32", "tensorShape": {}}}}}, {"name": "StatefulPartitionedCall/generator/conv2d_transpose_10/stack/3", "op": "Const", "attr": {"value": {"tensor": {"dtype": "DT_INT32", "tensorShape": {}}}, "dtype": {"type": "DT_INT32"}}}, {"name": "StatefulPartitionedCall/generator/conv2d_transpose_10/conv2d_transpose/ReadVariableOp", "op": "Const", "attr": {"dtype": {"type": "DT_FLOAT"}, "value": {"tensor": {"dtype": "DT_FLOAT", "tensorShape": {"dim": [{"size": "3"}, {"size": "3"}, {"size": "64"}, {"size": "64"}]}}}}}, {"name": "StatefulPartitionedCall/generator/conv2d_transpose_9/strided_slice/stack", "op": "Const", "attr": {"dtype": {"type": "DT_INT32"}, "value": {"tensor": {"dtype": "DT_INT32", "tensorShape": {"dim": [{"size": "1"}]}}}}}, {"name": "StatefulPartitionedCall/generator/conv2d_transpose_9/strided_slice/stack_1", "op": "Const", "attr": {"value": {"tensor": {"dtype": "DT_INT32", "tensorShape": {"dim": [{"size": "1"}]}}}, "dtype": {"type": "DT_INT32"}}}, {"name": "StatefulPartitionedCall/generator/conv2d_transpose_9/strided_slice/stack_2", "op": "Const", "attr": {"dtype": {"type": "DT_INT32"}, "value": {"tensor": {"dtype": "DT_INT32", "tensorShape": {"dim": [{"size": "1"}]}}}}}, {"name": "StatefulPartitionedCall/generator/conv2d_transpose_9/stack/1", "op": "Const", "attr": {"value": {"tensor": {"dtype": "DT_INT32", "tensorShape": {}}}, "dtype": {"type": "DT_INT32"}}}, {"name": "StatefulPartitionedCall/generator/conv2d_transpose_9/stack/2", "op": "Const", "attr": {"dtype": {"type": "DT_INT32"}, "value": {"tensor": {"dtype": "DT_INT32", "tensorShape": {}}}}}, {"name": "StatefulPartitionedCall/generator/conv2d_transpose_9/stack/3", "op": "Const", "attr": {"dtype": {"type": "DT_INT32"}, "value": {"tensor": {"dtype": "DT_INT32", "tensorShape": {}}}}}, {"name": "StatefulPartitionedCall/generator/conv2d_transpose_9/conv2d_transpose/ReadVariableOp", "op": "Const", "attr": {"dtype": {"type": "DT_FLOAT"}, "value": {"tensor": {"dtype": "DT_FLOAT", "tensorShape": {"dim": [{"size": "3"}, {"size": "3"}, {"size": "64"}, {"size": "128"}]}}}}}, {"name": "StatefulPartitionedCall/generator/conv2d_8/Conv2D/ReadVariableOp", "op": "Const", "attr": {"dtype": {"type": "DT_FLOAT"}, "value": {"tensor": {"dtype": "DT_FLOAT", "tensorShape": {"dim": [{"size": "3"}, {"size": "3"}, {"size": "1"}, {"size": "8"}]}}}}}, {"name": "StatefulPartitionedCall/generator/conv2d_8/BiasAdd/ReadVariableOp", "op": "Const", "attr": {"dtype": {"type": "DT_FLOAT"}, "value": {"tensor": {"dtype": "DT_FLOAT", "tensorShape": {"dim": [{"size": "8"}]}}}}}, {"name": "StatefulPartitionedCall/generator/conv2d_9/Conv2D/ReadVariableOp", "op": "Const", "attr": {"value": {"tensor": {"dtype": "DT_FLOAT", "tensorShape": {"dim": [{"size": "3"}, {"size": "3"}, {"size": "8"}, {"size": "16"}]}}}, "dtype": {"type": "DT_FLOAT"}}}, {"name": "StatefulPartitionedCall/generator/conv2d_9/BiasAdd/ReadVariableOp", "op": "Const", "attr": {"value": {"tensor": {"dtype": "DT_FLOAT", "tensorShape": {"dim": [{"size": "16"}]}}}, "dtype": {"type": "DT_FLOAT"}}}, {"name": "StatefulPartitionedCall/generator/conv2d_10/Conv2D/ReadVariableOp", "op": "Const", "attr": {"value": {"tensor": {"dtype": "DT_FLOAT", "tensorShape": {"dim": [{"size": "3"}, {"size": "3"}, {"size": "16"}, {"size": "32"}]}}}, "dtype": {"type": "DT_FLOAT"}}}, {"name": "StatefulPartitionedCall/generator/conv2d_10/BiasAdd/ReadVariableOp", "op": "Const", "attr": {"value": {"tensor": {"dtype": "DT_FLOAT", "tensorShape": {"dim": [{"size": "32"}]}}}, "dtype": {"type": "DT_FLOAT"}}}, {"name": "StatefulPartitionedCall/generator/conv2d_11/Conv2D/ReadVariableOp", "op": "Const", "attr": {"value": {"tensor": {"dtype": "DT_FLOAT", "tensorShape": {"dim": [{"size": "3"}, {"size": "3"}, {"size": "32"}, {"size": "64"}]}}}, "dtype": {"type": "DT_FLOAT"}}}, {"name": "StatefulPartitionedCall/generator/conv2d_11/BiasAdd/ReadVariableOp", "op": "Const", "attr": {"dtype": {"type": "DT_FLOAT"}, "value": {"tensor": {"dtype": "DT_FLOAT", "tensorShape": {"dim": [{"size": "64"}]}}}}}, {"name": "StatefulPartitionedCall/generator/reshape_1/strided_slice/stack", "op": "Const", "attr": {"dtype": {"type": "DT_INT32"}, "value": {"tensor": {"dtype": "DT_INT32", "tensorShape": {"dim": [{"size": "1"}]}}}}}, {"name": "StatefulPartitionedCall/generator/reshape_1/strided_slice/stack_1", "op": "Const", "attr": {"dtype": {"type": "DT_INT32"}, "value": {"tensor": {"dtype": "DT_INT32", "tensorShape": {"dim": [{"size": "1"}]}}}}}, {"name": "StatefulPartitionedCall/generator/reshape_1/strided_slice/stack_2", "op": "Const", "attr": {"dtype": {"type": "DT_INT32"}, "value": {"tensor": {"dtype": "DT_INT32", "tensorShape": {"dim": [{"size": "1"}]}}}}}, {"name": "StatefulPartitionedCall/generator/reshape_1/Reshape/shape/1", "op": "Const", "attr": {"value": {"tensor": {"dtype": "DT_INT32", "tensorShape": {}}}, "dtype": {"type": "DT_INT32"}}}, {"name": "StatefulPartitionedCall/generator/reshape_1/Reshape/shape/2", "op": "Const", "attr": {"dtype": {"type": "DT_INT32"}, "value": {"tensor": {"dtype": "DT_INT32", "tensorShape": {}}}}}, {"name": "StatefulPartitionedCall/generator/reshape_1/Reshape/shape/3", "op": "Const", "attr": {"dtype": {"type": "DT_INT32"}, "value": {"tensor": {"dtype": "DT_INT32", "tensorShape": {}}}}}, {"name": "StatefulPartitionedCall/generator/concatenate/concat/axis", "op": "Const", "attr": {"value": {"tensor": {"dtype": "DT_INT32", "tensorShape": {}}}, "dtype": {"type": "DT_INT32"}}}, {"name": "StatefulPartitionedCall/generator/conv2d_transpose_9/BiasAdd/ReadVariableOp", "op": "Const", "attr": {"dtype": {"type": "DT_FLOAT"}, "value": {"tensor": {"dtype": "DT_FLOAT", "tensorShape": {"dim": [{"size": "64"}]}}}}}, {"name": "StatefulPartitionedCall/generator/conv2d_transpose_10/BiasAdd/ReadVariableOp", "op": "Const", "attr": {"value": {"tensor": {"dtype": "DT_FLOAT", "tensorShape": {"dim": [{"size": "64"}]}}}, "dtype": {"type": "DT_FLOAT"}}}, {"name": "StatefulPartitionedCall/generator/concatenate_1/concat/axis", "op": "Const", "attr": {"dtype": {"type": "DT_INT32"}, "value": {"tensor": {"dtype": "DT_INT32", "tensorShape": {}}}}}, {"name": "StatefulPartitionedCall/generator/conv2d_transpose_11/BiasAdd/ReadVariableOp", "op": "Const", "attr": {"value": {"tensor": {"dtype": "DT_FLOAT", "tensorShape": {"dim": [{"size": "32"}]}}}, "dtype": {"type": "DT_FLOAT"}}}, {"name": "StatefulPartitionedCall/generator/conv2d_transpose_12/BiasAdd/ReadVariableOp", "op": "Const", "attr": {"dtype": {"type": "DT_FLOAT"}, "value": {"tensor": {"dtype": "DT_FLOAT", "tensorShape": {"dim": [{"size": "32"}]}}}}}, {"name": "StatefulPartitionedCall/generator/concatenate_2/concat/axis", "op": "Const", "attr": {"value": {"tensor": {"dtype": "DT_INT32", "tensorShape": {}}}, "dtype": {"type": "DT_INT32"}}}, {"name": "StatefulPartitionedCall/generator/conv2d_transpose_13/BiasAdd/ReadVariableOp", "op": "Const", "attr": {"value": {"tensor": {"dtype": "DT_FLOAT", "tensorShape": {"dim": [{"size": "16"}]}}}, "dtype": {"type": "DT_FLOAT"}}}, {"name": "StatefulPartitionedCall/generator/conv2d_transpose_14/BiasAdd/ReadVariableOp", "op": "Const", "attr": {"dtype": {"type": "DT_FLOAT"}, "value": {"tensor": {"dtype": "DT_FLOAT", "tensorShape": {"dim": [{"size": "16"}]}}}}}, {"name": "StatefulPartitionedCall/generator/concatenate_3/concat/axis", "op": "Const", "attr": {"value": {"tensor": {"dtype": "DT_INT32", "tensorShape": {}}}, "dtype": {"type": "DT_INT32"}}}, {"name": "StatefulPartitionedCall/generator/conv2d_transpose_15/BiasAdd/ReadVariableOp", "op": "Const", "attr": {"value": {"tensor": {"dtype": "DT_FLOAT", "tensorShape": {"dim": [{"size": "8"}]}}}, "dtype": {"type": "DT_FLOAT"}}}, {"name": "StatefulPartitionedCall/generator/conv2d_transpose_16/BiasAdd/ReadVariableOp", "op": "Const", "attr": {"value": {"tensor": {"dtype": "DT_FLOAT", "tensorShape": {"dim": [{"size": "8"}]}}}, "dtype": {"type": "DT_FLOAT"}}}, {"name": "StatefulPartitionedCall/generator/concatenate_4/concat/axis", "op": "Const", "attr": {"dtype": {"type": "DT_INT32"}, "value": {"tensor": {"dtype": "DT_INT32", "tensorShape": {}}}}}, {"name": "StatefulPartitionedCall/generator/conv2d_transpose_17/BiasAdd/ReadVariableOp", "op": "Const", "attr": {"value": {"tensor": {"dtype": "DT_FLOAT", "tensorShape": {"dim": [{"size": "1"}]}}}, "dtype": {"type": "DT_FLOAT"}}}, {"name": "input_3", "op": "Placeholder", "attr": {"shape": {"shape": {"dim": [{"size": "-1"}, {"size": "64"}, {"size": "64"}, {"size": "1"}]}}, "dtype": {"type": "DT_FLOAT"}}}, {"name": "StatefulPartitionedCall/generator/batch_normalization_10/FusedBatchNormV3/Offset", "op": "Const", "attr": {"value": {"tensor": {"dtype": "DT_FLOAT", "tensorShape": {"dim": [{"size": "8"}]}}}, "dtype": {"type": "DT_FLOAT"}}}, {"name": "StatefulPartitionedCall/generator/batch_normalization_9/FusedBatchNormV3/Scaled", "op": "Const", "attr": {"dtype": {"type": "DT_FLOAT"}, "value": {"tensor": {"dtype": "DT_FLOAT", "tensorShape": {"dim": [{"size": "1"}]}}}}}, {"name": "StatefulPartitionedCall/generator/batch_normalization_9/FusedBatchNormV3/Offset", "op": "Const", "attr": {"dtype": {"type": "DT_FLOAT"}, "value": {"tensor": {"dtype": "DT_FLOAT", "tensorShape": {"dim": [{"size": "1"}]}}}}}, {"name": "input_4", "op": "Placeholder", "attr": {"dtype": {"type": "DT_FLOAT"}, "shape": {"shape": {"dim": [{"size": "-1"}, {"size": "1024"}]}}}}, {"name": "StatefulPartitionedCall/generator/batch_normalization_18/FusedBatchNormV3/Scaled", "op": "Const", "attr": {"value": {"tensor": {"dtype": "DT_FLOAT", "tensorShape": {"dim": [{"size": "8"}]}}}, "dtype": {"type": "DT_FLOAT"}}}, {"name": "StatefulPartitionedCall/generator/batch_normalization_18/FusedBatchNormV3/Offset", "op": "Const", "attr": {"value": {"tensor": {"dtype": "DT_FLOAT", "tensorShape": {"dim": [{"size": "8"}]}}}, "dtype": {"type": "DT_FLOAT"}}}, {"name": "StatefulPartitionedCall/generator/batch_normalization_17/FusedBatchNormV3/Scaled", "op": "Const", "attr": {"value": {"tensor": {"dtype": "DT_FLOAT", "tensorShape": {"dim": [{"size": "16"}]}}}, "dtype": {"type": "DT_FLOAT"}}}, {"name": "StatefulPartitionedCall/generator/batch_normalization_17/FusedBatchNormV3/Offset", "op": "Const", "attr": {"dtype": {"type": "DT_FLOAT"}, "value": {"tensor": {"dtype": "DT_FLOAT", "tensorShape": {"dim": [{"size": "16"}]}}}}}, {"name": "StatefulPartitionedCall/generator/batch_normalization_16/FusedBatchNormV3/Scaled", "op": "Const", "attr": {"dtype": {"type": "DT_FLOAT"}, "value": {"tensor": {"dtype": "DT_FLOAT", "tensorShape": {"dim": [{"size": "32"}]}}}}}, {"name": "StatefulPartitionedCall/generator/batch_normalization_16/FusedBatchNormV3/Offset", "op": "Const", "attr": {"value": {"tensor": {"dtype": "DT_FLOAT", "tensorShape": {"dim": [{"size": "32"}]}}}, "dtype": {"type": "DT_FLOAT"}}}, {"name": "StatefulPartitionedCall/generator/batch_normalization_15/FusedBatchNormV3/Scaled", "op": "Const", "attr": {"dtype": {"type": "DT_FLOAT"}, "value": {"tensor": {"dtype": "DT_FLOAT", "tensorShape": {"dim": [{"size": "64"}]}}}}}, {"name": "StatefulPartitionedCall/generator/batch_normalization_15/FusedBatchNormV3/Offset", "op": "Const", "attr": {"dtype": {"type": "DT_FLOAT"}, "value": {"tensor": {"dtype": "DT_FLOAT", "tensorShape": {"dim": [{"size": "64"}]}}}}}, {"name": "StatefulPartitionedCall/generator/batch_normalization_14/FusedBatchNormV3/Scaled", "op": "Const", "attr": {"value": {"tensor": {"dtype": "DT_FLOAT", "tensorShape": {"dim": [{"size": "64"}]}}}, "dtype": {"type": "DT_FLOAT"}}}, {"name": "StatefulPartitionedCall/generator/batch_normalization_14/FusedBatchNormV3/Offset", "op": "Const", "attr": {"value": {"tensor": {"dtype": "DT_FLOAT", "tensorShape": {"dim": [{"size": "64"}]}}}, "dtype": {"type": "DT_FLOAT"}}}, {"name": "StatefulPartitionedCall/generator/batch_normalization_13/FusedBatchNormV3/Scaled", "op": "Const", "attr": {"dtype": {"type": "DT_FLOAT"}, "value": {"tensor": {"dtype": "DT_FLOAT", "tensorShape": {"dim": [{"size": "64"}]}}}}}, {"name": "StatefulPartitionedCall/generator/batch_normalization_13/FusedBatchNormV3/Offset", "op": "Const", "attr": {"value": {"tensor": {"dtype": "DT_FLOAT", "tensorShape": {"dim": [{"size": "64"}]}}}, "dtype": {"type": "DT_FLOAT"}}}, {"name": "StatefulPartitionedCall/generator/batch_normalization_12/FusedBatchNormV3/Scaled", "op": "Const", "attr": {"dtype": {"type": "DT_FLOAT"}, "value": {"tensor": {"dtype": "DT_FLOAT", "tensorShape": {"dim": [{"size": "32"}]}}}}}, {"name": "StatefulPartitionedCall/generator/batch_normalization_12/FusedBatchNormV3/Offset", "op": "Const", "attr": {"value": {"tensor": {"dtype": "DT_FLOAT", "tensorShape": {"dim": [{"size": "32"}]}}}, "dtype": {"type": "DT_FLOAT"}}}, {"name": "StatefulPartitionedCall/generator/batch_normalization_11/FusedBatchNormV3/Scaled", "op": "Const", "attr": {"value": {"tensor": {"dtype": "DT_FLOAT", "tensorShape": {"dim": [{"size": "16"}]}}}, "dtype": {"type": "DT_FLOAT"}}}, {"name": "StatefulPartitionedCall/generator/batch_normalization_11/FusedBatchNormV3/Offset", "op": "Const", "attr": {"dtype": {"type": "DT_FLOAT"}, "value": {"tensor": {"dtype": "DT_FLOAT", "tensorShape": {"dim": [{"size": "16"}]}}}}}, {"name": "StatefulPartitionedCall/generator/batch_normalization_10/FusedBatchNormV3/Scaled", "op": "Const", "attr": {"value": {"tensor": {"dtype": "DT_FLOAT", "tensorShape": {"dim": [{"size": "8"}]}}}, "dtype": {"type": "DT_FLOAT"}}}, {"name": "StatefulPartitionedCall/generator/batch_normalization_9/FusedBatchNormV3/Mul", "op": "Mul", "input": ["input_3", "StatefulPartitionedCall/generator/batch_normalization_9/FusedBatchNormV3/Scaled"], "attr": {"T": {"type": "DT_FLOAT"}}}, {"name": "StatefulPartitionedCall/generator/reshape_1/Shape", "op": "Shape", "input": ["input_4"], "attr": {"T": {"type": "DT_FLOAT"}, "out_type": {"type": "DT_INT32"}}}, {"name": "StatefulPartitionedCall/generator/batch_normalization_9/FusedBatchNormV3", "op": "Add", "input": ["StatefulPartitionedCall/generator/batch_normalization_9/FusedBatchNormV3/Mul", "StatefulPartitionedCall/generator/batch_normalization_9/FusedBatchNormV3/Offset"], "attr": {"T": {"type": "DT_FLOAT"}}}, {"name": "StatefulPartitionedCall/generator/reshape_1/strided_slice", "op": "StridedSlice", "input": ["StatefulPartitionedCall/generator/reshape_1/Shape", "StatefulPartitionedCall/generator/reshape_1/strided_slice/stack", "StatefulPartitionedCall/generator/reshape_1/strided_slice/stack_1", "StatefulPartitionedCall/generator/reshape_1/strided_slice/stack_2"], "attr": {"new_axis_mask": {"i": "0"}, "ellipsis_mask": {"i": "0"}, "begin_mask": {"i": "0"}, "end_mask": {"i": "0"}, "T": {"type": "DT_INT32"}, "Index": {"type": "DT_INT32"}, "shrink_axis_mask": {"i": "1"}}}, {"name": "StatefulPartitionedCall/generator/conv2d_8/Relu", "op": "_FusedConv2D", "input": ["StatefulPartitionedCall/generator/batch_normalization_9/FusedBatchNormV3", "StatefulPartitionedCall/generator/conv2d_8/Conv2D/ReadVariableOp", "StatefulPartitionedCall/generator/conv2d_8/BiasAdd/ReadVariableOp"], "device": "/device:CPU:0", "attr": {"use_cudnn_on_gpu": {"b": true}, "dilations": {"list": {"i": ["1", "1", "1", "1"]}}, "leakyrelu_alpha": {"f": 0.2}, "T": {"type": "DT_FLOAT"}, "strides": {"list": {"i": ["1", "2", "2", "1"]}}, "data_format": {"s": "TkhXQw=="}, "padding": {"s": "U0FNRQ=="}, "epsilon": {"f": 0.0}, "num_args": {"i": "1"}, "fused_ops": {"list": {"s": ["Qmlhc0FkZA==", "UmVsdQ=="]}}, "explicit_paddings": {"list": {}}}}, {"name": "StatefulPartitionedCall/generator/reshape_1/Reshape/shape", "op": "Pack", "input": ["StatefulPartitionedCall/generator/reshape_1/strided_slice", "StatefulPartitionedCall/generator/reshape_1/Reshape/shape/1", "StatefulPartitionedCall/generator/reshape_1/Reshape/shape/2", "StatefulPartitionedCall/generator/reshape_1/Reshape/shape/3"], "attr": {"axis": {"i": "0"}, "N": {"i": "4"}, "T": {"type": "DT_INT32"}}}, {"name": "StatefulPartitionedCall/generator/batch_normalization_10/FusedBatchNormV3/Mul", "op": "Mul", "input": ["StatefulPartitionedCall/generator/conv2d_8/Relu", "StatefulPartitionedCall/generator/batch_normalization_10/FusedBatchNormV3/Scaled"], "attr": {"T": {"type": "DT_FLOAT"}}}, {"name": "StatefulPartitionedCall/generator/reshape_1/Reshape", "op": "Reshape", "input": ["input_4", "StatefulPartitionedCall/generator/reshape_1/Reshape/shape"], "attr": {"Tshape": {"type": "DT_INT32"}, "T": {"type": "DT_FLOAT"}}}, {"name": "StatefulPartitionedCall/generator/batch_normalization_10/FusedBatchNormV3", "op": "Add", "input": ["StatefulPartitionedCall/generator/batch_normalization_10/FusedBatchNormV3/Mul", "StatefulPartitionedCall/generator/batch_normalization_10/FusedBatchNormV3/Offset"], "attr": {"T": {"type": "DT_FLOAT"}}}, {"name": "StatefulPartitionedCall/generator/batch_normalization_14/FusedBatchNormV3/Mul", "op": "Mul", "input": ["StatefulPartitionedCall/generator/reshape_1/Reshape", "StatefulPartitionedCall/generator/batch_normalization_14/FusedBatchNormV3/Scaled"], "attr": {"T": {"type": "DT_FLOAT"}}}, {"name": "StatefulPartitionedCall/generator/conv2d_9/Relu", "op": "_FusedConv2D", "input": ["StatefulPartitionedCall/generator/batch_normalization_10/FusedBatchNormV3", "StatefulPartitionedCall/generator/conv2d_9/Conv2D/ReadVariableOp", "StatefulPartitionedCall/generator/conv2d_9/BiasAdd/ReadVariableOp"], "device": "/device:CPU:0", "attr": {"epsilon": {"f": 0.0}, "strides": {"list": {"i": ["1", "2", "2", "1"]}}, "fused_ops": {"list": {"s": ["Qmlhc0FkZA==", "UmVsdQ=="]}}, "padding": {"s": "U0FNRQ=="}, "leakyrelu_alpha": {"f": 0.2}, "explicit_paddings": {"list": {}}, "num_args": {"i": "1"}, "use_cudnn_on_gpu": {"b": true}, "T": {"type": "DT_FLOAT"}, "data_format": {"s": "TkhXQw=="}, "dilations": {"list": {"i": ["1", "1", "1", "1"]}}}}, {"name": "StatefulPartitionedCall/generator/batch_normalization_14/FusedBatchNormV3", "op": "Add", "input": ["StatefulPartitionedCall/generator/batch_normalization_14/FusedBatchNormV3/Mul", "StatefulPartitionedCall/generator/batch_normalization_14/FusedBatchNormV3/Offset"], "attr": {"T": {"type": "DT_FLOAT"}}}, {"name": "StatefulPartitionedCall/generator/batch_normalization_11/FusedBatchNormV3/Mul", "op": "Mul", "input": ["StatefulPartitionedCall/generator/conv2d_9/Relu", "StatefulPartitionedCall/generator/batch_normalization_11/FusedBatchNormV3/Scaled"], "attr": {"T": {"type": "DT_FLOAT"}}}, {"name": "StatefulPartitionedCall/generator/batch_normalization_11/FusedBatchNormV3", "op": "Add", "input": ["StatefulPartitionedCall/generator/batch_normalization_11/FusedBatchNormV3/Mul", "StatefulPartitionedCall/generator/batch_normalization_11/FusedBatchNormV3/Offset"], "attr": {"T": {"type": "DT_FLOAT"}}}, {"name": "StatefulPartitionedCall/generator/conv2d_10/Relu", "op": "_FusedConv2D", "input": ["StatefulPartitionedCall/generator/batch_normalization_11/FusedBatchNormV3", "StatefulPartitionedCall/generator/conv2d_10/Conv2D/ReadVariableOp", "StatefulPartitionedCall/generator/conv2d_10/BiasAdd/ReadVariableOp"], "device": "/device:CPU:0", "attr": {"T": {"type": "DT_FLOAT"}, "strides": {"list": {"i": ["1", "2", "2", "1"]}}, "num_args": {"i": "1"}, "use_cudnn_on_gpu": {"b": true}, "data_format": {"s": "TkhXQw=="}, "explicit_paddings": {"list": {}}, "dilations": {"list": {"i": ["1", "1", "1", "1"]}}, "leakyrelu_alpha": {"f": 0.2}, "epsilon": {"f": 0.0}, "fused_ops": {"list": {"s": ["Qmlhc0FkZA==", "UmVsdQ=="]}}, "padding": {"s": "U0FNRQ=="}}}, {"name": "StatefulPartitionedCall/generator/batch_normalization_12/FusedBatchNormV3/Mul", "op": "Mul", "input": ["StatefulPartitionedCall/generator/conv2d_10/Relu", "StatefulPartitionedCall/generator/batch_normalization_12/FusedBatchNormV3/Scaled"], "attr": {"T": {"type": "DT_FLOAT"}}}, {"name": "StatefulPartitionedCall/generator/batch_normalization_12/FusedBatchNormV3", "op": "Add", "input": ["StatefulPartitionedCall/generator/batch_normalization_12/FusedBatchNormV3/Mul", "StatefulPartitionedCall/generator/batch_normalization_12/FusedBatchNormV3/Offset"], "attr": {"T": {"type": "DT_FLOAT"}}}, {"name": "StatefulPartitionedCall/generator/conv2d_11/Relu", "op": "_FusedConv2D", "input": ["StatefulPartitionedCall/generator/batch_normalization_12/FusedBatchNormV3", "StatefulPartitionedCall/generator/conv2d_11/Conv2D/ReadVariableOp", "StatefulPartitionedCall/generator/conv2d_11/BiasAdd/ReadVariableOp"], "device": "/device:CPU:0", "attr": {"T": {"type": "DT_FLOAT"}, "use_cudnn_on_gpu": {"b": true}, "leakyrelu_alpha": {"f": 0.2}, "strides": {"list": {"i": ["1", "2", "2", "1"]}}, "dilations": {"list": {"i": ["1", "1", "1", "1"]}}, "fused_ops": {"list": {"s": ["Qmlhc0FkZA==", "UmVsdQ=="]}}, "num_args": {"i": "1"}, "explicit_paddings": {"list": {}}, "padding": {"s": "U0FNRQ=="}, "epsilon": {"f": 0.0}, "data_format": {"s": "TkhXQw=="}}}, {"name": "StatefulPartitionedCall/generator/batch_normalization_13/FusedBatchNormV3/Mul", "op": "Mul", "input": ["StatefulPartitionedCall/generator/conv2d_11/Relu", "StatefulPartitionedCall/generator/batch_normalization_13/FusedBatchNormV3/Scaled"], "attr": {"T": {"type": "DT_FLOAT"}}}, {"name": "StatefulPartitionedCall/generator/batch_normalization_13/FusedBatchNormV3", "op": "Add", "input": ["StatefulPartitionedCall/generator/batch_normalization_13/FusedBatchNormV3/Mul", "StatefulPartitionedCall/generator/batch_normalization_13/FusedBatchNormV3/Offset"], "attr": {"T": {"type": "DT_FLOAT"}}}, {"name": "StatefulPartitionedCall/generator/concatenate/concat", "op": "ConcatV2", "input": ["StatefulPartitionedCall/generator/batch_normalization_13/FusedBatchNormV3", "StatefulPartitionedCall/generator/batch_normalization_14/FusedBatchNormV3", "StatefulPartitionedCall/generator/concatenate/concat/axis"], "attr": {"Tidx": {"type": "DT_INT32"}, "N": {"i": "2"}, "T": {"type": "DT_FLOAT"}}}, {"name": "StatefulPartitionedCall/generator/conv2d_transpose_9/Shape", "op": "Shape", "input": ["StatefulPartitionedCall/generator/concatenate/concat"], "attr": {"T": {"type": "DT_FLOAT"}, "out_type": {"type": "DT_INT32"}}}, {"name": "StatefulPartitionedCall/generator/conv2d_transpose_9/strided_slice", "op": "StridedSlice", "input": ["StatefulPartitionedCall/generator/conv2d_transpose_9/Shape", "StatefulPartitionedCall/generator/conv2d_transpose_9/strided_slice/stack", "StatefulPartitionedCall/generator/conv2d_transpose_9/strided_slice/stack_1", "StatefulPartitionedCall/generator/conv2d_transpose_9/strided_slice/stack_2"], "attr": {"end_mask": {"i": "0"}, "ellipsis_mask": {"i": "0"}, "T": {"type": "DT_INT32"}, "begin_mask": {"i": "0"}, "Index": {"type": "DT_INT32"}, "new_axis_mask": {"i": "0"}, "shrink_axis_mask": {"i": "1"}}}, {"name": "StatefulPartitionedCall/generator/conv2d_transpose_9/stack", "op": "Pack", "input": ["StatefulPartitionedCall/generator/conv2d_transpose_9/strided_slice", "StatefulPartitionedCall/generator/conv2d_transpose_9/stack/1", "StatefulPartitionedCall/generator/conv2d_transpose_9/stack/2", "StatefulPartitionedCall/generator/conv2d_transpose_9/stack/3"], "attr": {"axis": {"i": "0"}, "N": {"i": "4"}, "T": {"type": "DT_INT32"}}}, {"name": "StatefulPartitionedCall/generator/conv2d_transpose_9/conv2d_transpose", "op": "Conv2DBackpropInput", "input": ["StatefulPartitionedCall/generator/conv2d_transpose_9/stack", "StatefulPartitionedCall/generator/conv2d_transpose_9/conv2d_transpose/ReadVariableOp", "StatefulPartitionedCall/generator/concatenate/concat"], "attr": {"use_cudnn_on_gpu": {"b": true}, "dilations": {"list": {"i": ["1", "1", "1", "1"]}}, "padding": {"s": "U0FNRQ=="}, "T": {"type": "DT_FLOAT"}, "strides": {"list": {"i": ["1", "2", "2", "1"]}}, "explicit_paddings": {"list": {}}, "data_format": {"s": "TkhXQw=="}}}, {"name": "StatefulPartitionedCall/generator/conv2d_transpose_9/BiasAdd", "op": "BiasAdd", "input": ["StatefulPartitionedCall/generator/conv2d_transpose_9/conv2d_transpose", "StatefulPartitionedCall/generator/conv2d_transpose_9/BiasAdd/ReadVariableOp"], "attr": {"T": {"type": "DT_FLOAT"}, "data_format": {"s": "TkhXQw=="}}}, {"name": "StatefulPartitionedCall/generator/conv2d_transpose_9/Relu", "op": "Relu", "input": ["StatefulPartitionedCall/generator/conv2d_transpose_9/BiasAdd"], "attr": {"T": {"type": "DT_FLOAT"}}}, {"name": "StatefulPartitionedCall/generator/conv2d_transpose_10/Shape", "op": "Shape", "input": ["StatefulPartitionedCall/generator/conv2d_transpose_9/Relu"], "attr": {"T": {"type": "DT_FLOAT"}, "out_type": {"type": "DT_INT32"}}}, {"name": "StatefulPartitionedCall/generator/conv2d_transpose_10/strided_slice", "op": "StridedSlice", "input": ["StatefulPartitionedCall/generator/conv2d_transpose_10/Shape", "StatefulPartitionedCall/generator/conv2d_transpose_10/strided_slice/stack", "StatefulPartitionedCall/generator/conv2d_transpose_10/strided_slice/stack_1", "StatefulPartitionedCall/generator/conv2d_transpose_10/strided_slice/stack_2"], "attr": {"Index": {"type": "DT_INT32"}, "begin_mask": {"i": "0"}, "ellipsis_mask": {"i": "0"}, "new_axis_mask": {"i": "0"}, "end_mask": {"i": "0"}, "shrink_axis_mask": {"i": "1"}, "T": {"type": "DT_INT32"}}}, {"name": "StatefulPartitionedCall/generator/conv2d_transpose_10/stack", "op": "Pack", "input": ["StatefulPartitionedCall/generator/conv2d_transpose_10/strided_slice", "StatefulPartitionedCall/generator/conv2d_transpose_10/stack/1", "StatefulPartitionedCall/generator/conv2d_transpose_10/stack/2", "StatefulPartitionedCall/generator/conv2d_transpose_10/stack/3"], "attr": {"N": {"i": "4"}, "T": {"type": "DT_INT32"}, "axis": {"i": "0"}}}, {"name": "StatefulPartitionedCall/generator/conv2d_transpose_10/conv2d_transpose", "op": "Conv2DBackpropInput", "input": ["StatefulPartitionedCall/generator/conv2d_transpose_10/stack", "StatefulPartitionedCall/generator/conv2d_transpose_10/conv2d_transpose/ReadVariableOp", "StatefulPartitionedCall/generator/conv2d_transpose_9/Relu"], "attr": {"padding": {"s": "U0FNRQ=="}, "explicit_paddings": {"list": {}}, "dilations": {"list": {"i": ["1", "1", "1", "1"]}}, "T": {"type": "DT_FLOAT"}, "strides": {"list": {"i": ["1", "1", "1", "1"]}}, "data_format": {"s": "TkhXQw=="}, "use_cudnn_on_gpu": {"b": true}}}, {"name": "StatefulPartitionedCall/generator/conv2d_transpose_10/BiasAdd", "op": "BiasAdd", "input": ["StatefulPartitionedCall/generator/conv2d_transpose_10/conv2d_transpose", "StatefulPartitionedCall/generator/conv2d_transpose_10/BiasAdd/ReadVariableOp"], "attr": {"data_format": {"s": "TkhXQw=="}, "T": {"type": "DT_FLOAT"}}}, {"name": "StatefulPartitionedCall/generator/conv2d_transpose_10/Relu", "op": "Relu", "input": ["StatefulPartitionedCall/generator/conv2d_transpose_10/BiasAdd"], "attr": {"T": {"type": "DT_FLOAT"}}}, {"name": "StatefulPartitionedCall/generator/batch_normalization_15/FusedBatchNormV3/Mul", "op": "Mul", "input": ["StatefulPartitionedCall/generator/conv2d_transpose_10/Relu", "StatefulPartitionedCall/generator/batch_normalization_15/FusedBatchNormV3/Scaled"], "attr": {"T": {"type": "DT_FLOAT"}}}, {"name": "StatefulPartitionedCall/generator/batch_normalization_15/FusedBatchNormV3", "op": "Add", "input": ["StatefulPartitionedCall/generator/batch_normalization_15/FusedBatchNormV3/Mul", "StatefulPartitionedCall/generator/batch_normalization_15/FusedBatchNormV3/Offset"], "attr": {"T": {"type": "DT_FLOAT"}}}, {"name": "StatefulPartitionedCall/generator/concatenate_1/concat", "op": "ConcatV2", "input": ["StatefulPartitionedCall/generator/batch_normalization_12/FusedBatchNormV3", "StatefulPartitionedCall/generator/batch_normalization_15/FusedBatchNormV3", "StatefulPartitionedCall/generator/concatenate_1/concat/axis"], "attr": {"N": {"i": "2"}, "Tidx": {"type": "DT_INT32"}, "T": {"type": "DT_FLOAT"}}}, {"name": "StatefulPartitionedCall/generator/conv2d_transpose_11/Shape", "op": "Shape", "input": ["StatefulPartitionedCall/generator/concatenate_1/concat"], "attr": {"out_type": {"type": "DT_INT32"}, "T": {"type": "DT_FLOAT"}}}, {"name": "StatefulPartitionedCall/generator/conv2d_transpose_11/strided_slice", "op": "StridedSlice", "input": ["StatefulPartitionedCall/generator/conv2d_transpose_11/Shape", "StatefulPartitionedCall/generator/conv2d_transpose_11/strided_slice/stack", "StatefulPartitionedCall/generator/conv2d_transpose_11/strided_slice/stack_1", "StatefulPartitionedCall/generator/conv2d_transpose_11/strided_slice/stack_2"], "attr": {"end_mask": {"i": "0"}, "ellipsis_mask": {"i": "0"}, "Index": {"type": "DT_INT32"}, "T": {"type": "DT_INT32"}, "shrink_axis_mask": {"i": "1"}, "begin_mask": {"i": "0"}, "new_axis_mask": {"i": "0"}}}, {"name": "StatefulPartitionedCall/generator/conv2d_transpose_11/stack", "op": "Pack", "input": ["StatefulPartitionedCall/generator/conv2d_transpose_11/strided_slice", "StatefulPartitionedCall/generator/conv2d_transpose_11/stack/1", "StatefulPartitionedCall/generator/conv2d_transpose_11/stack/2", "StatefulPartitionedCall/generator/conv2d_transpose_11/stack/3"], "attr": {"N": {"i": "4"}, "T": {"type": "DT_INT32"}, "axis": {"i": "0"}}}, {"name": "StatefulPartitionedCall/generator/conv2d_transpose_11/conv2d_transpose", "op": "Conv2DBackpropInput", "input": ["StatefulPartitionedCall/generator/conv2d_transpose_11/stack", "StatefulPartitionedCall/generator/conv2d_transpose_11/conv2d_transpose/ReadVariableOp", "StatefulPartitionedCall/generator/concatenate_1/concat"], "attr": {"T": {"type": "DT_FLOAT"}, "use_cudnn_on_gpu": {"b": true}, "dilations": {"list": {"i": ["1", "1", "1", "1"]}}, "explicit_paddings": {"list": {}}, "strides": {"list": {"i": ["1", "2", "2", "1"]}}, "data_format": {"s": "TkhXQw=="}, "padding": {"s": "U0FNRQ=="}}}, {"name": "StatefulPartitionedCall/generator/conv2d_transpose_11/BiasAdd", "op": "BiasAdd", "input": ["StatefulPartitionedCall/generator/conv2d_transpose_11/conv2d_transpose", "StatefulPartitionedCall/generator/conv2d_transpose_11/BiasAdd/ReadVariableOp"], "attr": {"data_format": {"s": "TkhXQw=="}, "T": {"type": "DT_FLOAT"}}}, {"name": "StatefulPartitionedCall/generator/conv2d_transpose_11/Relu", "op": "Relu", "input": ["StatefulPartitionedCall/generator/conv2d_transpose_11/BiasAdd"], "attr": {"T": {"type": "DT_FLOAT"}}}, {"name": "StatefulPartitionedCall/generator/conv2d_transpose_12/Shape", "op": "Shape", "input": ["StatefulPartitionedCall/generator/conv2d_transpose_11/Relu"], "attr": {"T": {"type": "DT_FLOAT"}, "out_type": {"type": "DT_INT32"}}}, {"name": "StatefulPartitionedCall/generator/conv2d_transpose_12/strided_slice", "op": "StridedSlice", "input": ["StatefulPartitionedCall/generator/conv2d_transpose_12/Shape", "StatefulPartitionedCall/generator/conv2d_transpose_12/strided_slice/stack", "StatefulPartitionedCall/generator/conv2d_transpose_12/strided_slice/stack_1", "StatefulPartitionedCall/generator/conv2d_transpose_12/strided_slice/stack_2"], "attr": {"end_mask": {"i": "0"}, "begin_mask": {"i": "0"}, "ellipsis_mask": {"i": "0"}, "Index": {"type": "DT_INT32"}, "new_axis_mask": {"i": "0"}, "shrink_axis_mask": {"i": "1"}, "T": {"type": "DT_INT32"}}}, {"name": "StatefulPartitionedCall/generator/conv2d_transpose_12/stack", "op": "Pack", "input": ["StatefulPartitionedCall/generator/conv2d_transpose_12/strided_slice", "StatefulPartitionedCall/generator/conv2d_transpose_12/stack/1", "StatefulPartitionedCall/generator/conv2d_transpose_12/stack/2", "StatefulPartitionedCall/generator/conv2d_transpose_12/stack/3"], "attr": {"T": {"type": "DT_INT32"}, "N": {"i": "4"}, "axis": {"i": "0"}}}, {"name": "StatefulPartitionedCall/generator/conv2d_transpose_12/conv2d_transpose", "op": "Conv2DBackpropInput", "input": ["StatefulPartitionedCall/generator/conv2d_transpose_12/stack", "StatefulPartitionedCall/generator/conv2d_transpose_12/conv2d_transpose/ReadVariableOp", "StatefulPartitionedCall/generator/conv2d_transpose_11/Relu"], "attr": {"dilations": {"list": {"i": ["1", "1", "1", "1"]}}, "T": {"type": "DT_FLOAT"}, "explicit_paddings": {"list": {}}, "data_format": {"s": "TkhXQw=="}, "strides": {"list": {"i": ["1", "1", "1", "1"]}}, "padding": {"s": "U0FNRQ=="}, "use_cudnn_on_gpu": {"b": true}}}, {"name": "StatefulPartitionedCall/generator/conv2d_transpose_12/BiasAdd", "op": "BiasAdd", "input": ["StatefulPartitionedCall/generator/conv2d_transpose_12/conv2d_transpose", "StatefulPartitionedCall/generator/conv2d_transpose_12/BiasAdd/ReadVariableOp"], "attr": {"T": {"type": "DT_FLOAT"}, "data_format": {"s": "TkhXQw=="}}}, {"name": "StatefulPartitionedCall/generator/conv2d_transpose_12/Relu", "op": "Relu", "input": ["StatefulPartitionedCall/generator/conv2d_transpose_12/BiasAdd"], "attr": {"T": {"type": "DT_FLOAT"}}}, {"name": "StatefulPartitionedCall/generator/batch_normalization_16/FusedBatchNormV3/Mul", "op": "Mul", "input": ["StatefulPartitionedCall/generator/conv2d_transpose_12/Relu", "StatefulPartitionedCall/generator/batch_normalization_16/FusedBatchNormV3/Scaled"], "attr": {"T": {"type": "DT_FLOAT"}}}, {"name": "StatefulPartitionedCall/generator/batch_normalization_16/FusedBatchNormV3", "op": "Add", "input": ["StatefulPartitionedCall/generator/batch_normalization_16/FusedBatchNormV3/Mul", "StatefulPartitionedCall/generator/batch_normalization_16/FusedBatchNormV3/Offset"], "attr": {"T": {"type": "DT_FLOAT"}}}, {"name": "StatefulPartitionedCall/generator/concatenate_2/concat", "op": "ConcatV2", "input": ["StatefulPartitionedCall/generator/batch_normalization_11/FusedBatchNormV3", "StatefulPartitionedCall/generator/batch_normalization_16/FusedBatchNormV3", "StatefulPartitionedCall/generator/concatenate_2/concat/axis"], "attr": {"N": {"i": "2"}, "T": {"type": "DT_FLOAT"}, "Tidx": {"type": "DT_INT32"}}}, {"name": "StatefulPartitionedCall/generator/conv2d_transpose_13/Shape", "op": "Shape", "input": ["StatefulPartitionedCall/generator/concatenate_2/concat"], "attr": {"out_type": {"type": "DT_INT32"}, "T": {"type": "DT_FLOAT"}}}, {"name": "StatefulPartitionedCall/generator/conv2d_transpose_13/strided_slice", "op": "StridedSlice", "input": ["StatefulPartitionedCall/generator/conv2d_transpose_13/Shape", "StatefulPartitionedCall/generator/conv2d_transpose_13/strided_slice/stack", "StatefulPartitionedCall/generator/conv2d_transpose_13/strided_slice/stack_1", "StatefulPartitionedCall/generator/conv2d_transpose_13/strided_slice/stack_2"], "attr": {"end_mask": {"i": "0"}, "ellipsis_mask": {"i": "0"}, "begin_mask": {"i": "0"}, "shrink_axis_mask": {"i": "1"}, "new_axis_mask": {"i": "0"}, "Index": {"type": "DT_INT32"}, "T": {"type": "DT_INT32"}}}, {"name": "StatefulPartitionedCall/generator/conv2d_transpose_13/stack", "op": "Pack", "input": ["StatefulPartitionedCall/generator/conv2d_transpose_13/strided_slice", "StatefulPartitionedCall/generator/conv2d_transpose_13/stack/1", "StatefulPartitionedCall/generator/conv2d_transpose_13/stack/2", "StatefulPartitionedCall/generator/conv2d_transpose_13/stack/3"], "attr": {"N": {"i": "4"}, "axis": {"i": "0"}, "T": {"type": "DT_INT32"}}}, {"name": "StatefulPartitionedCall/generator/conv2d_transpose_13/conv2d_transpose", "op": "Conv2DBackpropInput", "input": ["StatefulPartitionedCall/generator/conv2d_transpose_13/stack", "StatefulPartitionedCall/generator/conv2d_transpose_13/conv2d_transpose/ReadVariableOp", "StatefulPartitionedCall/generator/concatenate_2/concat"], "attr": {"explicit_paddings": {"list": {}}, "padding": {"s": "U0FNRQ=="}, "data_format": {"s": "TkhXQw=="}, "strides": {"list": {"i": ["1", "2", "2", "1"]}}, "use_cudnn_on_gpu": {"b": true}, "T": {"type": "DT_FLOAT"}, "dilations": {"list": {"i": ["1", "1", "1", "1"]}}}}, {"name": "StatefulPartitionedCall/generator/conv2d_transpose_13/BiasAdd", "op": "BiasAdd", "input": ["StatefulPartitionedCall/generator/conv2d_transpose_13/conv2d_transpose", "StatefulPartitionedCall/generator/conv2d_transpose_13/BiasAdd/ReadVariableOp"], "attr": {"T": {"type": "DT_FLOAT"}, "data_format": {"s": "TkhXQw=="}}}, {"name": "StatefulPartitionedCall/generator/conv2d_transpose_13/Relu", "op": "Relu", "input": ["StatefulPartitionedCall/generator/conv2d_transpose_13/BiasAdd"], "attr": {"T": {"type": "DT_FLOAT"}}}, {"name": "StatefulPartitionedCall/generator/conv2d_transpose_14/Shape", "op": "Shape", "input": ["StatefulPartitionedCall/generator/conv2d_transpose_13/Relu"], "attr": {"out_type": {"type": "DT_INT32"}, "T": {"type": "DT_FLOAT"}}}, {"name": "StatefulPartitionedCall/generator/conv2d_transpose_14/strided_slice", "op": "StridedSlice", "input": ["StatefulPartitionedCall/generator/conv2d_transpose_14/Shape", "StatefulPartitionedCall/generator/conv2d_transpose_14/strided_slice/stack", "StatefulPartitionedCall/generator/conv2d_transpose_14/strided_slice/stack_1", "StatefulPartitionedCall/generator/conv2d_transpose_14/strided_slice/stack_2"], "attr": {"end_mask": {"i": "0"}, "Index": {"type": "DT_INT32"}, "T": {"type": "DT_INT32"}, "new_axis_mask": {"i": "0"}, "shrink_axis_mask": {"i": "1"}, "begin_mask": {"i": "0"}, "ellipsis_mask": {"i": "0"}}}, {"name": "StatefulPartitionedCall/generator/conv2d_transpose_14/stack", "op": "Pack", "input": ["StatefulPartitionedCall/generator/conv2d_transpose_14/strided_slice", "StatefulPartitionedCall/generator/conv2d_transpose_14/stack/1", "StatefulPartitionedCall/generator/conv2d_transpose_14/stack/2", "StatefulPartitionedCall/generator/conv2d_transpose_14/stack/3"], "attr": {"axis": {"i": "0"}, "N": {"i": "4"}, "T": {"type": "DT_INT32"}}}, {"name": "StatefulPartitionedCall/generator/conv2d_transpose_14/conv2d_transpose", "op": "Conv2DBackpropInput", "input": ["StatefulPartitionedCall/generator/conv2d_transpose_14/stack", "StatefulPartitionedCall/generator/conv2d_transpose_14/conv2d_transpose/ReadVariableOp", "StatefulPartitionedCall/generator/conv2d_transpose_13/Relu"], "attr": {"T": {"type": "DT_FLOAT"}, "dilations": {"list": {"i": ["1", "1", "1", "1"]}}, "explicit_paddings": {"list": {}}, "padding": {"s": "U0FNRQ=="}, "use_cudnn_on_gpu": {"b": true}, "data_format": {"s": "TkhXQw=="}, "strides": {"list": {"i": ["1", "1", "1", "1"]}}}}, {"name": "StatefulPartitionedCall/generator/conv2d_transpose_14/BiasAdd", "op": "BiasAdd", "input": ["StatefulPartitionedCall/generator/conv2d_transpose_14/conv2d_transpose", "StatefulPartitionedCall/generator/conv2d_transpose_14/BiasAdd/ReadVariableOp"], "attr": {"data_format": {"s": "TkhXQw=="}, "T": {"type": "DT_FLOAT"}}}, {"name": "StatefulPartitionedCall/generator/conv2d_transpose_14/Relu", "op": "Relu", "input": ["StatefulPartitionedCall/generator/conv2d_transpose_14/BiasAdd"], "attr": {"T": {"type": "DT_FLOAT"}}}, {"name": "StatefulPartitionedCall/generator/batch_normalization_17/FusedBatchNormV3/Mul", "op": "Mul", "input": ["StatefulPartitionedCall/generator/conv2d_transpose_14/Relu", "StatefulPartitionedCall/generator/batch_normalization_17/FusedBatchNormV3/Scaled"], "attr": {"T": {"type": "DT_FLOAT"}}}, {"name": "StatefulPartitionedCall/generator/batch_normalization_17/FusedBatchNormV3", "op": "Add", "input": ["StatefulPartitionedCall/generator/batch_normalization_17/FusedBatchNormV3/Mul", "StatefulPartitionedCall/generator/batch_normalization_17/FusedBatchNormV3/Offset"], "attr": {"T": {"type": "DT_FLOAT"}}}, {"name": "StatefulPartitionedCall/generator/concatenate_3/concat", "op": "ConcatV2", "input": ["StatefulPartitionedCall/generator/batch_normalization_10/FusedBatchNormV3", "StatefulPartitionedCall/generator/batch_normalization_17/FusedBatchNormV3", "StatefulPartitionedCall/generator/concatenate_3/concat/axis"], "attr": {"N": {"i": "2"}, "Tidx": {"type": "DT_INT32"}, "T": {"type": "DT_FLOAT"}}}, {"name": "StatefulPartitionedCall/generator/conv2d_transpose_15/Shape", "op": "Shape", "input": ["StatefulPartitionedCall/generator/concatenate_3/concat"], "attr": {"T": {"type": "DT_FLOAT"}, "out_type": {"type": "DT_INT32"}}}, {"name": "StatefulPartitionedCall/generator/conv2d_transpose_15/strided_slice", "op": "StridedSlice", "input": ["StatefulPartitionedCall/generator/conv2d_transpose_15/Shape", "StatefulPartitionedCall/generator/conv2d_transpose_15/strided_slice/stack", "StatefulPartitionedCall/generator/conv2d_transpose_15/strided_slice/stack_1", "StatefulPartitionedCall/generator/conv2d_transpose_15/strided_slice/stack_2"], "attr": {"shrink_axis_mask": {"i": "1"}, "T": {"type": "DT_INT32"}, "Index": {"type": "DT_INT32"}, "begin_mask": {"i": "0"}, "end_mask": {"i": "0"}, "new_axis_mask": {"i": "0"}, "ellipsis_mask": {"i": "0"}}}, {"name": "StatefulPartitionedCall/generator/conv2d_transpose_15/stack", "op": "Pack", "input": ["StatefulPartitionedCall/generator/conv2d_transpose_15/strided_slice", "StatefulPartitionedCall/generator/conv2d_transpose_15/stack/1", "StatefulPartitionedCall/generator/conv2d_transpose_15/stack/2", "StatefulPartitionedCall/generator/conv2d_transpose_15/stack/3"], "attr": {"N": {"i": "4"}, "T": {"type": "DT_INT32"}, "axis": {"i": "0"}}}, {"name": "StatefulPartitionedCall/generator/conv2d_transpose_15/conv2d_transpose", "op": "Conv2DBackpropInput", "input": ["StatefulPartitionedCall/generator/conv2d_transpose_15/stack", "StatefulPartitionedCall/generator/conv2d_transpose_15/conv2d_transpose/ReadVariableOp", "StatefulPartitionedCall/generator/concatenate_3/concat"], "attr": {"use_cudnn_on_gpu": {"b": true}, "padding": {"s": "U0FNRQ=="}, "T": {"type": "DT_FLOAT"}, "data_format": {"s": "TkhXQw=="}, "dilations": {"list": {"i": ["1", "1", "1", "1"]}}, "explicit_paddings": {"list": {}}, "strides": {"list": {"i": ["1", "2", "2", "1"]}}}}, {"name": "StatefulPartitionedCall/generator/conv2d_transpose_15/BiasAdd", "op": "BiasAdd", "input": ["StatefulPartitionedCall/generator/conv2d_transpose_15/conv2d_transpose", "StatefulPartitionedCall/generator/conv2d_transpose_15/BiasAdd/ReadVariableOp"], "attr": {"T": {"type": "DT_FLOAT"}, "data_format": {"s": "TkhXQw=="}}}, {"name": "StatefulPartitionedCall/generator/conv2d_transpose_15/Relu", "op": "Relu", "input": ["StatefulPartitionedCall/generator/conv2d_transpose_15/BiasAdd"], "attr": {"T": {"type": "DT_FLOAT"}}}, {"name": "StatefulPartitionedCall/generator/conv2d_transpose_16/Shape", "op": "Shape", "input": ["StatefulPartitionedCall/generator/conv2d_transpose_15/Relu"], "attr": {"out_type": {"type": "DT_INT32"}, "T": {"type": "DT_FLOAT"}}}, {"name": "StatefulPartitionedCall/generator/conv2d_transpose_16/strided_slice", "op": "StridedSlice", "input": ["StatefulPartitionedCall/generator/conv2d_transpose_16/Shape", "StatefulPartitionedCall/generator/conv2d_transpose_16/strided_slice/stack", "StatefulPartitionedCall/generator/conv2d_transpose_16/strided_slice/stack_1", "StatefulPartitionedCall/generator/conv2d_transpose_16/strided_slice/stack_2"], "attr": {"begin_mask": {"i": "0"}, "ellipsis_mask": {"i": "0"}, "Index": {"type": "DT_INT32"}, "T": {"type": "DT_INT32"}, "new_axis_mask": {"i": "0"}, "shrink_axis_mask": {"i": "1"}, "end_mask": {"i": "0"}}}, {"name": "StatefulPartitionedCall/generator/conv2d_transpose_16/stack", "op": "Pack", "input": ["StatefulPartitionedCall/generator/conv2d_transpose_16/strided_slice", "StatefulPartitionedCall/generator/conv2d_transpose_16/stack/1", "StatefulPartitionedCall/generator/conv2d_transpose_16/stack/2", "StatefulPartitionedCall/generator/conv2d_transpose_16/stack/3"], "attr": {"N": {"i": "4"}, "T": {"type": "DT_INT32"}, "axis": {"i": "0"}}}, {"name": "StatefulPartitionedCall/generator/conv2d_transpose_16/conv2d_transpose", "op": "Conv2DBackpropInput", "input": ["StatefulPartitionedCall/generator/conv2d_transpose_16/stack", "StatefulPartitionedCall/generator/conv2d_transpose_16/conv2d_transpose/ReadVariableOp", "StatefulPartitionedCall/generator/conv2d_transpose_15/Relu"], "attr": {"padding": {"s": "U0FNRQ=="}, "data_format": {"s": "TkhXQw=="}, "explicit_paddings": {"list": {}}, "T": {"type": "DT_FLOAT"}, "use_cudnn_on_gpu": {"b": true}, "dilations": {"list": {"i": ["1", "1", "1", "1"]}}, "strides": {"list": {"i": ["1", "1", "1", "1"]}}}}, {"name": "StatefulPartitionedCall/generator/conv2d_transpose_16/BiasAdd", "op": "BiasAdd", "input": ["StatefulPartitionedCall/generator/conv2d_transpose_16/conv2d_transpose", "StatefulPartitionedCall/generator/conv2d_transpose_16/BiasAdd/ReadVariableOp"], "attr": {"data_format": {"s": "TkhXQw=="}, "T": {"type": "DT_FLOAT"}}}, {"name": "StatefulPartitionedCall/generator/conv2d_transpose_16/Relu", "op": "Relu", "input": ["StatefulPartitionedCall/generator/conv2d_transpose_16/BiasAdd"], "attr": {"T": {"type": "DT_FLOAT"}}}, {"name": "StatefulPartitionedCall/generator/batch_normalization_18/FusedBatchNormV3/Mul", "op": "Mul", "input": ["StatefulPartitionedCall/generator/conv2d_transpose_16/Relu", "StatefulPartitionedCall/generator/batch_normalization_18/FusedBatchNormV3/Scaled"], "attr": {"T": {"type": "DT_FLOAT"}}}, {"name": "StatefulPartitionedCall/generator/batch_normalization_18/FusedBatchNormV3", "op": "Add", "input": ["StatefulPartitionedCall/generator/batch_normalization_18/FusedBatchNormV3/Mul", "StatefulPartitionedCall/generator/batch_normalization_18/FusedBatchNormV3/Offset"], "attr": {"T": {"type": "DT_FLOAT"}}}, {"name": "StatefulPartitionedCall/generator/concatenate_4/concat", "op": "ConcatV2", "input": ["StatefulPartitionedCall/generator/batch_normalization_9/FusedBatchNormV3", "StatefulPartitionedCall/generator/batch_normalization_18/FusedBatchNormV3", "StatefulPartitionedCall/generator/concatenate_4/concat/axis"], "attr": {"T": {"type": "DT_FLOAT"}, "N": {"i": "2"}, "Tidx": {"type": "DT_INT32"}}}, {"name": "StatefulPartitionedCall/generator/conv2d_transpose_17/Shape", "op": "Shape", "input": ["StatefulPartitionedCall/generator/concatenate_4/concat"], "attr": {"out_type": {"type": "DT_INT32"}, "T": {"type": "DT_FLOAT"}}}, {"name": "StatefulPartitionedCall/generator/conv2d_transpose_17/strided_slice", "op": "StridedSlice", "input": ["StatefulPartitionedCall/generator/conv2d_transpose_17/Shape", "StatefulPartitionedCall/generator/conv2d_transpose_17/strided_slice/stack", "StatefulPartitionedCall/generator/conv2d_transpose_17/strided_slice/stack_1", "StatefulPartitionedCall/generator/conv2d_transpose_17/strided_slice/stack_2"], "attr": {"new_axis_mask": {"i": "0"}, "begin_mask": {"i": "0"}, "Index": {"type": "DT_INT32"}, "shrink_axis_mask": {"i": "1"}, "T": {"type": "DT_INT32"}, "ellipsis_mask": {"i": "0"}, "end_mask": {"i": "0"}}}, {"name": "StatefulPartitionedCall/generator/conv2d_transpose_17/stack", "op": "Pack", "input": ["StatefulPartitionedCall/generator/conv2d_transpose_17/strided_slice", "StatefulPartitionedCall/generator/conv2d_transpose_17/stack/1", "StatefulPartitionedCall/generator/conv2d_transpose_17/stack/2", "StatefulPartitionedCall/generator/conv2d_transpose_17/stack/3"], "attr": {"T": {"type": "DT_INT32"}, "N": {"i": "4"}, "axis": {"i": "0"}}}, {"name": "StatefulPartitionedCall/generator/conv2d_transpose_17/conv2d_transpose", "op": "Conv2DBackpropInput", "input": ["StatefulPartitionedCall/generator/conv2d_transpose_17/stack", "StatefulPartitionedCall/generator/conv2d_transpose_17/conv2d_transpose/ReadVariableOp", "StatefulPartitionedCall/generator/concatenate_4/concat"], "attr": {"data_format": {"s": "TkhXQw=="}, "explicit_paddings": {"list": {}}, "dilations": {"list": {"i": ["1", "1", "1", "1"]}}, "strides": {"list": {"i": ["1", "1", "1", "1"]}}, "use_cudnn_on_gpu": {"b": true}, "padding": {"s": "U0FNRQ=="}, "T": {"type": "DT_FLOAT"}}}, {"name": "StatefulPartitionedCall/generator/conv2d_transpose_17/BiasAdd", "op": "BiasAdd", "input": ["StatefulPartitionedCall/generator/conv2d_transpose_17/conv2d_transpose", "StatefulPartitionedCall/generator/conv2d_transpose_17/BiasAdd/ReadVariableOp"], "attr": {"T": {"type": "DT_FLOAT"}, "data_format": {"s": "TkhXQw=="}}}, {"name": "StatefulPartitionedCall/generator/conv2d_transpose_17/Sigmoid", "op": "Sigmoid", "input": ["StatefulPartitionedCall/generator/conv2d_transpose_17/BiasAdd"], "attr": {"T": {"type": "DT_FLOAT"}}}, {"name": "Identity", "op": "Identity", "input": ["StatefulPartitionedCall/generator/conv2d_transpose_17/Sigmoid"], "attr": {"T": {"type": "DT_FLOAT"}}}], "library": {}, "versions": {"producer": 1205}}, "weightsManifest": [{"paths": ["group1-shard1of1.bin"], "weights": [{"name": "StatefulPartitionedCall/generator/conv2d_transpose_17/strided_slice/stack", "shape": [1], "dtype": "int32"}, {"name": "StatefulPartitionedCall/generator/conv2d_transpose_17/strided_slice/stack_1", "shape": [1], "dtype": "int32"}, {"name": "StatefulPartitionedCall/generator/conv2d_transpose_17/strided_slice/stack_2", "shape": [1], "dtype": "int32"}, {"name": "StatefulPartitionedCall/generator/conv2d_transpose_17/stack/1", "shape": [], "dtype": "int32"}, {"name": "StatefulPartitionedCall/generator/conv2d_transpose_17/stack/2", "shape": [], "dtype": "int32"}, {"name": "StatefulPartitionedCall/generator/conv2d_transpose_17/stack/3", "shape": [], "dtype": "int32"}, {"name": "StatefulPartitionedCall/generator/conv2d_transpose_17/conv2d_transpose/ReadVariableOp", "shape": [3, 3, 1, 9], "dtype": "float32"}, {"name": "StatefulPartitionedCall/generator/conv2d_transpose_16/strided_slice/stack", "shape": [1], "dtype": "int32"}, {"name": "StatefulPartitionedCall/generator/conv2d_transpose_16/strided_slice/stack_1", "shape": [1], "dtype": "int32"}, {"name": "StatefulPartitionedCall/generator/conv2d_transpose_16/strided_slice/stack_2", "shape": [1], "dtype": "int32"}, {"name": "StatefulPartitionedCall/generator/conv2d_transpose_16/stack/1", "shape": [], "dtype": "int32"}, {"name": "StatefulPartitionedCall/generator/conv2d_transpose_16/stack/2", "shape": [], "dtype": "int32"}, {"name": "StatefulPartitionedCall/generator/conv2d_transpose_16/stack/3", "shape": [], "dtype": "int32"}, {"name": "StatefulPartitionedCall/generator/conv2d_transpose_16/conv2d_transpose/ReadVariableOp", "shape": [3, 3, 8, 8], "dtype": "float32"}, {"name": "StatefulPartitionedCall/generator/conv2d_transpose_15/strided_slice/stack", "shape": [1], "dtype": "int32"}, {"name": "StatefulPartitionedCall/generator/conv2d_transpose_15/strided_slice/stack_1", "shape": [1], "dtype": "int32"}, {"name": "StatefulPartitionedCall/generator/conv2d_transpose_15/strided_slice/stack_2", "shape": [1], "dtype": "int32"}, {"name": "StatefulPartitionedCall/generator/conv2d_transpose_15/stack/1", "shape": [], "dtype": "int32"}, {"name": "StatefulPartitionedCall/generator/conv2d_transpose_15/stack/2", "shape": [], "dtype": "int32"}, {"name": "StatefulPartitionedCall/generator/conv2d_transpose_15/stack/3", "shape": [], "dtype": "int32"}, {"name": "StatefulPartitionedCall/generator/conv2d_transpose_15/conv2d_transpose/ReadVariableOp", "shape": [3, 3, 8, 24], "dtype": "float32"}, {"name": "StatefulPartitionedCall/generator/conv2d_transpose_14/strided_slice/stack", "shape": [1], "dtype": "int32"}, {"name": "StatefulPartitionedCall/generator/conv2d_transpose_14/strided_slice/stack_1", "shape": [1], "dtype": "int32"}, {"name": "StatefulPartitionedCall/generator/conv2d_transpose_14/strided_slice/stack_2", "shape": [1], "dtype": "int32"}, {"name": "StatefulPartitionedCall/generator/conv2d_transpose_14/stack/1", "shape": [], "dtype": "int32"}, {"name": "StatefulPartitionedCall/generator/conv2d_transpose_14/stack/2", "shape": [], "dtype": "int32"}, {"name": "StatefulPartitionedCall/generator/conv2d_transpose_14/stack/3", "shape": [], "dtype": "int32"}, {"name": "StatefulPartitionedCall/generator/conv2d_transpose_14/conv2d_transpose/ReadVariableOp", "shape": [3, 3, 16, 16], "dtype": "float32"}, {"name": "StatefulPartitionedCall/generator/conv2d_transpose_13/strided_slice/stack", "shape": [1], "dtype": "int32"}, {"name": "StatefulPartitionedCall/generator/conv2d_transpose_13/strided_slice/stack_1", "shape": [1], "dtype": "int32"}, {"name": "StatefulPartitionedCall/generator/conv2d_transpose_13/strided_slice/stack_2", "shape": [1], "dtype": "int32"}, {"name": "StatefulPartitionedCall/generator/conv2d_transpose_13/stack/1", "shape": [], "dtype": "int32"}, {"name": "StatefulPartitionedCall/generator/conv2d_transpose_13/stack/2", "shape": [], "dtype": "int32"}, {"name": "StatefulPartitionedCall/generator/conv2d_transpose_13/stack/3", "shape": [], "dtype": "int32"}, {"name": "StatefulPartitionedCall/generator/conv2d_transpose_13/conv2d_transpose/ReadVariableOp", "shape": [3, 3, 16, 48], "dtype": "float32"}, {"name": "StatefulPartitionedCall/generator/conv2d_transpose_12/strided_slice/stack", "shape": [1], "dtype": "int32"}, {"name": "StatefulPartitionedCall/generator/conv2d_transpose_12/strided_slice/stack_1", "shape": [1], "dtype": "int32"}, {"name": "StatefulPartitionedCall/generator/conv2d_transpose_12/strided_slice/stack_2", "shape": [1], "dtype": "int32"}, {"name": "StatefulPartitionedCall/generator/conv2d_transpose_12/stack/1", "shape": [], "dtype": "int32"}, {"name": "StatefulPartitionedCall/generator/conv2d_transpose_12/stack/2", "shape": [], "dtype": "int32"}, {"name": "StatefulPartitionedCall/generator/conv2d_transpose_12/stack/3", "shape": [], "dtype": "int32"}, {"name": "StatefulPartitionedCall/generator/conv2d_transpose_12/conv2d_transpose/ReadVariableOp", "shape": [3, 3, 32, 32], "dtype": "float32"}, {"name": "StatefulPartitionedCall/generator/conv2d_transpose_11/strided_slice/stack", "shape": [1], "dtype": "int32"}, {"name": "StatefulPartitionedCall/generator/conv2d_transpose_11/strided_slice/stack_1", "shape": [1], "dtype": "int32"}, {"name": "StatefulPartitionedCall/generator/conv2d_transpose_11/strided_slice/stack_2", "shape": [1], "dtype": "int32"}, {"name": "StatefulPartitionedCall/generator/conv2d_transpose_11/stack/1", "shape": [], "dtype": "int32"}, {"name": "StatefulPartitionedCall/generator/conv2d_transpose_11/stack/2", "shape": [], "dtype": "int32"}, {"name": "StatefulPartitionedCall/generator/conv2d_transpose_11/stack/3", "shape": [], "dtype": "int32"}, {"name": "StatefulPartitionedCall/generator/conv2d_transpose_11/conv2d_transpose/ReadVariableOp", "shape": [3, 3, 32, 96], "dtype": "float32"}, {"name": "StatefulPartitionedCall/generator/conv2d_transpose_10/strided_slice/stack", "shape": [1], "dtype": "int32"}, {"name": "StatefulPartitionedCall/generator/conv2d_transpose_10/strided_slice/stack_1", "shape": [1], "dtype": "int32"}, {"name": "StatefulPartitionedCall/generator/conv2d_transpose_10/strided_slice/stack_2", "shape": [1], "dtype": "int32"}, {"name": "StatefulPartitionedCall/generator/conv2d_transpose_10/stack/1", "shape": [], "dtype": "int32"}, {"name": "StatefulPartitionedCall/generator/conv2d_transpose_10/stack/2", "shape": [], "dtype": "int32"}, {"name": "StatefulPartitionedCall/generator/conv2d_transpose_10/stack/3", "shape": [], "dtype": "int32"}, {"name": "StatefulPartitionedCall/generator/conv2d_transpose_10/conv2d_transpose/ReadVariableOp", "shape": [3, 3, 64, 64], "dtype": "float32"}, {"name": "StatefulPartitionedCall/generator/conv2d_transpose_9/strided_slice/stack", "shape": [1], "dtype": "int32"}, {"name": "StatefulPartitionedCall/generator/conv2d_transpose_9/strided_slice/stack_1", "shape": [1], "dtype": "int32"}, {"name": "StatefulPartitionedCall/generator/conv2d_transpose_9/strided_slice/stack_2", "shape": [1], "dtype": "int32"}, {"name": "StatefulPartitionedCall/generator/conv2d_transpose_9/stack/1", "shape": [], "dtype": "int32"}, {"name": "StatefulPartitionedCall/generator/conv2d_transpose_9/stack/2", "shape": [], "dtype": "int32"}, {"name": "StatefulPartitionedCall/generator/conv2d_transpose_9/stack/3", "shape": [], "dtype": "int32"}, {"name": "StatefulPartitionedCall/generator/conv2d_transpose_9/conv2d_transpose/ReadVariableOp", "shape": [3, 3, 64, 128], "dtype": "float32"}, {"name": "StatefulPartitionedCall/generator/conv2d_8/Conv2D/ReadVariableOp", "shape": [3, 3, 1, 8], "dtype": "float32"}, {"name": "StatefulPartitionedCall/generator/conv2d_8/BiasAdd/ReadVariableOp", "shape": [8], "dtype": "float32"}, {"name": "StatefulPartitionedCall/generator/conv2d_9/Conv2D/ReadVariableOp", "shape": [3, 3, 8, 16], "dtype": "float32"}, {"name": "StatefulPartitionedCall/generator/conv2d_9/BiasAdd/ReadVariableOp", "shape": [16], "dtype": "float32"}, {"name": "StatefulPartitionedCall/generator/conv2d_10/Conv2D/ReadVariableOp", "shape": [3, 3, 16, 32], "dtype": "float32"}, {"name": "StatefulPartitionedCall/generator/conv2d_10/BiasAdd/ReadVariableOp", "shape": [32], "dtype": "float32"}, {"name": "StatefulPartitionedCall/generator/conv2d_11/Conv2D/ReadVariableOp", "shape": [3, 3, 32, 64], "dtype": "float32"}, {"name": "StatefulPartitionedCall/generator/conv2d_11/BiasAdd/ReadVariableOp", "shape": [64], "dtype": "float32"}, {"name": "StatefulPartitionedCall/generator/reshape_1/strided_slice/stack", "shape": [1], "dtype": "int32"}, {"name": "StatefulPartitionedCall/generator/reshape_1/strided_slice/stack_1", "shape": [1], "dtype": "int32"}, {"name": "StatefulPartitionedCall/generator/reshape_1/strided_slice/stack_2", "shape": [1], "dtype": "int32"}, {"name": "StatefulPartitionedCall/generator/reshape_1/Reshape/shape/1", "shape": [], "dtype": "int32"}, {"name": "StatefulPartitionedCall/generator/reshape_1/Reshape/shape/2", "shape": [], "dtype": "int32"}, {"name": "StatefulPartitionedCall/generator/reshape_1/Reshape/shape/3", "shape": [], "dtype": "int32"}, {"name": "StatefulPartitionedCall/generator/concatenate/concat/axis", "shape": [], "dtype": "int32"}, {"name": "StatefulPartitionedCall/generator/conv2d_transpose_9/BiasAdd/ReadVariableOp", "shape": [64], "dtype": "float32"}, {"name": "StatefulPartitionedCall/generator/conv2d_transpose_10/BiasAdd/ReadVariableOp", "shape": [64], "dtype": "float32"}, {"name": "StatefulPartitionedCall/generator/concatenate_1/concat/axis", "shape": [], "dtype": "int32"}, {"name": "StatefulPartitionedCall/generator/conv2d_transpose_11/BiasAdd/ReadVariableOp", "shape": [32], "dtype": "float32"}, {"name": "StatefulPartitionedCall/generator/conv2d_transpose_12/BiasAdd/ReadVariableOp", "shape": [32], "dtype": "float32"}, {"name": "StatefulPartitionedCall/generator/concatenate_2/concat/axis", "shape": [], "dtype": "int32"}, {"name": "StatefulPartitionedCall/generator/conv2d_transpose_13/BiasAdd/ReadVariableOp", "shape": [16], "dtype": "float32"}, {"name": "StatefulPartitionedCall/generator/conv2d_transpose_14/BiasAdd/ReadVariableOp", "shape": [16], "dtype": "float32"}, {"name": "StatefulPartitionedCall/generator/concatenate_3/concat/axis", "shape": [], "dtype": "int32"}, {"name": "StatefulPartitionedCall/generator/conv2d_transpose_15/BiasAdd/ReadVariableOp", "shape": [8], "dtype": "float32"}, {"name": "StatefulPartitionedCall/generator/conv2d_transpose_16/BiasAdd/ReadVariableOp", "shape": [8], "dtype": "float32"}, {"name": "StatefulPartitionedCall/generator/concatenate_4/concat/axis", "shape": [], "dtype": "int32"}, {"name": "StatefulPartitionedCall/generator/conv2d_transpose_17/BiasAdd/ReadVariableOp", "shape": [1], "dtype": "float32"}, {"name": "StatefulPartitionedCall/generator/batch_normalization_10/FusedBatchNormV3/Offset", "shape": [8], "dtype": "float32"}, {"name": "StatefulPartitionedCall/generator/batch_normalization_9/FusedBatchNormV3/Scaled", "shape": [1], "dtype": "float32"}, {"name": "StatefulPartitionedCall/generator/batch_normalization_9/FusedBatchNormV3/Offset", "shape": [1], "dtype": "float32"}, {"name": "StatefulPartitionedCall/generator/batch_normalization_18/FusedBatchNormV3/Scaled", "shape": [8], "dtype": "float32"}, {"name": "StatefulPartitionedCall/generator/batch_normalization_18/FusedBatchNormV3/Offset", "shape": [8], "dtype": "float32"}, {"name": "StatefulPartitionedCall/generator/batch_normalization_17/FusedBatchNormV3/Scaled", "shape": [16], "dtype": "float32"}, {"name": "StatefulPartitionedCall/generator/batch_normalization_17/FusedBatchNormV3/Offset", "shape": [16], "dtype": "float32"}, {"name": "StatefulPartitionedCall/generator/batch_normalization_16/FusedBatchNormV3/Scaled", "shape": [32], "dtype": "float32"}, {"name": "StatefulPartitionedCall/generator/batch_normalization_16/FusedBatchNormV3/Offset", "shape": [32], "dtype": "float32"}, {"name": "StatefulPartitionedCall/generator/batch_normalization_15/FusedBatchNormV3/Scaled", "shape": [64], "dtype": "float32"}, {"name": "StatefulPartitionedCall/generator/batch_normalization_15/FusedBatchNormV3/Offset", "shape": [64], "dtype": "float32"}, {"name": "StatefulPartitionedCall/generator/batch_normalization_14/FusedBatchNormV3/Scaled", "shape": [64], "dtype": "float32"}, {"name": "StatefulPartitionedCall/generator/batch_normalization_14/FusedBatchNormV3/Offset", "shape": [64], "dtype": "float32"}, {"name": "StatefulPartitionedCall/generator/batch_normalization_13/FusedBatchNormV3/Scaled", "shape": [64], "dtype": "float32"}, {"name": "StatefulPartitionedCall/generator/batch_normalization_13/FusedBatchNormV3/Offset", "shape": [64], "dtype": "float32"}, {"name": "StatefulPartitionedCall/generator/batch_normalization_12/FusedBatchNormV3/Scaled", "shape": [32], "dtype": "float32"}, {"name": "StatefulPartitionedCall/generator/batch_normalization_12/FusedBatchNormV3/Offset", "shape": [32], "dtype": "float32"}, {"name": "StatefulPartitionedCall/generator/batch_normalization_11/FusedBatchNormV3/Scaled", "shape": [16], "dtype": "float32"}, {"name": "StatefulPartitionedCall/generator/batch_normalization_11/FusedBatchNormV3/Offset", "shape": [16], "dtype": "float32"}, {"name": "StatefulPartitionedCall/generator/batch_normalization_10/FusedBatchNormV3/Scaled", "shape": [8], "dtype": "float32"}]}]}